CNN.pth (torch, 79840 bytes, 5 tensors)

conv1.weight f4 [32, 1, 3, 3]
-0.052070916 0.03342999 -0.30186594 -0.29376438 0.13872012 0.31471634 -0.17188562 -0.008441774
-0.23871201 0.19999373 -0.1532692 0.2617459 -0.07706752 0.12628655 0.2771977 -0.19643946
-0.0086482335 -0.10342817 -0.26477686 0.30303633 -0.12014271 0.27655658 0.18050277 0.020375604
0.21374215 -0.21484785 0.261179 -0.1327442 0.20772934 0.27255788 0.07960446 0.18095715
0.30079257 0.18073687 0.29911375 0.26636186 -0.080703184 0.3144934 0.12310222 0.22670783
0.07123375 -0.19220282 0.043126583 0.052658685 0.08905373 -0.06434281 -0.13601698 -0.22853673
0.20263153 0.16685742 -0.13837762 0.16838005 -0.24934472 0.24288742 0.3413616 -0.10862687
0.052384388 -0.23535407 -0.34497637 0.07555151 -0.33330256 -0.026518874 -0.23377644 -0.3199683
-0.25161982 0.10215877 -0.10567803 0.028257808 0.071928084 -0.07655819 -0.2827905 -0.16319151
0.1736012 -0.18011348 0.16714178 -0.21307497 0.15398467 -0.06869363 0.30442917 0.335949
0.10487637 -0.063982174 0.3418163 0.20884065 0.061385468 -0.16845927 0.27983984 0.058107108
0.14649586 -0.24879262 -0.122408934 0.1250447 -0.036967214 -0.25831744 0.005136102 -0.35917
-0.28884858 -0.34756088 -0.100834444 0.34420502 0.2599714 0.16336541 -0.25334823 0.27735674
0.065015174 0.06138712 0.26164213 -0.20191681 0.21321946 0.18335275 -0.2593036 0.01160874
0.024364214 -0.105485 0.16411872 -0.27178836 0.07654908 0.0583083 0.0774493 -0.025811829
-0.33864492 0.10351842 -0.08308534 -0.18598662 -0.1963373 0.36380044 -0.18374704 -0.17896526
-0.032892734 0.33717853 0.26401338 -0.12972103 -0.23078516 -0.04124979 0.07814801 -0.27036223
-0.023219815 -0.1009073 0.28386173 0.23425895 0.3226494 0.34195766 0.28173202 -0.047704186
-0.20768245 0.19977549 0.22688909 0.014605392 -0.010024337 0.20749958 0.060820144 0.26067862
-0.23893337 0.0026052503 0.27946615 -0.17592289 -0.06742468 0.05994303 0.11315362 0.037027944
0.20876819 0.07597234 0.14076725 0.0066272486 0.0709079 0.030625531 0.087623015 0.17811735
-0.05895434 0.01036853 0.32907403 -0.17610598 0.16684936 -0.27660942 0.19388556 -0.04116938
0.3251485 -0.056662586 0.048545413 0.18027094 0.0062719793 -0.039979 0.4777282 0.017596126
-0.06063171 -0.15095775 0.28304684 0.12617175 0.1700044 0.2522728 0.31053168 0.116502665
-0.03187926 0.037011653 -0.12981765 0.2139394 0.1969502 -0.2837331 0.10384162 -0.0416546
0.24093887 0.19390503 -0.2843069 0.033899702 -0.26012066 -0.12782037 -0.14445567 -0.3299698
-0.051482804 -0.029214326 -0.012252462 -0.069582574 -0.01199354 0.14700203 -0.009154965 -0.21294257
0.06770078 -0.12145104 -0.1312758 0.08609474 -0.29875025 0.25616667 -0.27760127 -0.10242647
0.28723386 -0.20714296 0.2857544 -0.14665326 -0.24530357 0.27954015 0.28860176 -0.22084183
0.07931288 -0.16676994 0.122943416 -0.22033605 -0.25722092 -0.31065026 -0.21484421 0.032270715
-0.13388374 -0.06350559 0.18515398 0.20734261 0.10732414 -0.2445697 0.27212742 0.33274746
0.022891693 0.14467967 -0.07553411 -0.23812233 -0.018387504 0.30445427 0.08906453 -0.13327709
00000000: 5048 55bd e3ed 083d 2c8e 9abe 4968 96be
00000010: a60c 0e3e 8022 a13e c902 30be 5e4f 0abc
00000020: ec70 74be 28cb 4c3e 9af2 1cbe 8f03 863e
00000030: 93d5 9dbd 4351 013e dbec 8d3e 6d27 49be
00000040: 52b1 0dbc 26d2 d3bd d590 87be 9427 9b3e
00000050: 620d f6bd d398 8d3e b8d5 383e bdea a63c
00000060: 39df 5a3e 1301 5cbe 41b9 853e 18ee 07be
00000070: 00b7 543e b58c 8b3e aa07 a33d d54c 393e
00000080: 7c01 9a3e 1613 393e 7025 993e 9560 883e
00000090: b647 a5bd 4705 a13e 041d fc3d 1926 683e
000000a0: 00e3 913d d1d0 44be 80a5 303d a2b0 573d
000000b0: cd61 b63d 2ac6 83bd 0948 0bbe 8805 6abe
000000c0: a47e 4f3e acdc 2a3e ddb2 0dbe d26b 2c3e
000000d0: 3954 7fbe 7bb7 783e f3c6 ae3e c477 debd
000000e0: 0391 563d a800 71be bea0 b0be c0ba 9a3d
000000f0: a2a6 aabe 1c3e d9bc 1763 6fbe e3d2 a3be
00000100: 50d4 80be 9e38 d13d b96d d8bd eb7c e73c
00000110: 084f 933d 8aca 9cbd ebc9 90be ad1b 27be
00000120: 83c4 313e ab6f 38be 3727 2b3e 5330 5abe
00000130: 28ae 1d3e 3faf 8cbd 24de 9b3e 8201 ac3e
00000140: 6cc9 d63d 1609 83bd 8c02 af3e 53da 553e
00000150: 546f 7b3d 9680 2cbe 2b47 8f3e b801 6e3d
00000160: 0303 163e 7ec3 7ebe 89b1 fabd b80b 003e
00000170: ef6a 17bd 2f42 84be bf4c a83b 21e5 b7be
00000180: f6e3 93be 80f3 b1be 4a82 cebd a43b b03e
00000190: f91a 853e 4349 273e dcb6 81be b401 8e3e
000001a0: ad26 853d 1071 7b3d f5f5 853e 48c3 4ebe
000001b0: 3456 5a3e d3c0 3b3e 71c3 84be 9632 3e3c
000001c0: 7697 c73c 8508 d8bd bd0e 283e d827 8bbe
000001d0: c4c5 9c3d afd4 6e3d bd9d 9e3d 5473 d3bc
000001e0: de62 adbe 7701 d43d a628 aabd 4773 3ebe
000001f0: a50c 49be 0d44 ba3e 2f28 3cbe ab42 37be
00000200: 88ba 06bd aaa2 ac3e c32c 873e 97d5 04be
00000210: f252 6cbe 8af5 28bd 100c a03d eb6c 8abe
00000220: 7b37 bebc 7da8 cebd 5356 913e 94e1 6f3e
00000230: 4d32 a53e 1315 af3e 2e3f 903e 7765 43bd
00000240: b5aa 54be f291 4c3e 9d55 683e 744b 6f3c
00000250: 1e3d 24bc c57a 543e 8b1e 793d ab77 853e
00000260: f3aa 74be d9bc 2a3b 3016 8f3e 2125 34be
00000270: f315 8abd d386 753d 16bd e73d 9daa 173d
00000280: 54c7 553e 6397 9b3d 4a25 103e 6429 d93b
00000290: 2938 913d 65e2 fa3c b273 b33d 6564 363e
000002a0: 1b7a 71bd c4e0 293c 647c a83e 2055 34be
000002b0: 8fda 2a3e c09f 8dbe f089 463e 39a1 28bd
000002c0: dd79 a63e 0717 68bd 8ed7 463d f298 383e
000002d0: 2d85 cd3b 05c1 23bd ca98 f43e c025 903c
000002e0: f558 78bd ab94 1abe 84eb 903e 2b33 013e
000002f0: a215 2e3e e729 813e 02fe 9e3e f398 ee3d
00000300: d493 02bd 8899 173d ebee 04be ee12 5b3e
00000310: 50ad 493e 7745 91be eaaa d43d 049e 2abd
00000320: aeb8 763e 0a8f 463e ad90 91be 6ada 0a3d
00000330: 892e 85be 58e3 02be 30ec 13be cdf1 a8be
00000340: a2df 52bd e252 efbc 8dbe 48bc 4f81 8ebd
00000350: 8e80 44bc b387 163e b5fe 15bc 9e0d 5abe
00000360: b5a6 8a3d 53bb f8bd 2a6d 06be 7052 b03d
00000370: cbf5 98be 4728 833e c121 8ebe f8c4 d1bd
00000380: 5110 933e 491d 54be 674e 923e 462c 16be
00000390: dc30 7bbe e31f 8f3e 9cc3 933e 5c24 62be
000003a0: cb6e a23d bdc5 2abe c2c9 fb3d c69f 61be
000003b0: 76b2 83be 8d0d 9fbe 1f00 5cbe 4c2e 043d
000003c0: d218 09be 380f 82bd 0199 3d3e 9f51 543e
000003d0: c2cc db3d 7b70 7abe 4954 8b3e e05d aa3e
000003e0: 5c87 bb3c e826 143e a1b1 9abd 57d6 73be
000003f0: 64a1 96bc 6ee1 9b3e 7767 b63d ca79 08be

conv1.bias f4 [32]
0.2745561 0.00650009 -0.11121074 -0.18655685 -0.17083707 0.29295355 0.08794718 0.14393704
-0.13842957 -0.20905168 0.18813345 -0.019432846 0.19872202 0.11649327 0.17028965 0.27931333
-0.25355315 0.080745496 0.092189096 0.25199318 -0.0107233245 -0.13231054 0.14174518 0.26253042
0.2972776 0.1981396 0.01960019 0.20824929 0.041258544 0.07908249 0.017448543 0.04392172
00000000: 9e92 8c3e b5fe d43b 75c2 e3bd c208 3fbe
00000010: eaef 2ebe 02fe 953e a71d b43d 3b64 133e
00000020: 7bc0 0dbe a511 56be 0ea6 403e a231 9fbc
00000030: c97d 4b3e 0694 ee3d 6960 2e3e 2802 8f3e
00000040: b8d1 81be e55d a53d a3cd bc3d 4005 813e
00000050: e2b0 2fbc 6a7c 07be a625 113e 636a 863e
00000060: c534 983e 1be5 4a3e 9490 a03c 4d3f 553e
00000070: b8fe 283d 00f6 a13d 3ff0 8e3c 43e7 333d

conv2.weight f4 [64, 32, 3, 3]
0.036172535 0.04931293 0.0074703046 -0.022627963 0.030690502 0.05901229 0.034263086 -0.046095468
-0.011828823 -0.0005910876 -0.075654685 -0.022897143 -0.04801424 -0.039312523 -0.06342488 -0.050174832
-0.019472495 0.029207831 0.023333905 -0.021814309 -0.024424857 0.033602525 -0.017094798 -0.057545118
0.0073459633 -0.016432565 -0.0069981967 -0.051381297 -0.03235985 0.02625513 -0.022004593 -0.047256943
-0.014936301 -0.043288548 -0.0062706918 -0.013696303 0.056190617 0.014900703 -0.0014453157 -0.012311555
-0.04637923 -0.05800556 -0.0074309013 0.032598305 -0.06679204 0.029694661 0.033613585 -0.039318327
0.057984915 0.0209805 0.027470015 0.052885953 0.048437346 0.051920466 -0.013464803 0.04934644
-0.022342587 -0.0157015 -0.041438196 0.015985275 0.04308647 -0.0053758156 -0.029087381 0.040886775
0.005506697 0.03232297 0.05746845 -0.03605562 0.05142288 -0.044695407 0.002652067 0.012530046
0.06002632 -0.008827825 0.034014873 -0.022773443 -0.04388222 -0.015843835 -0.04622162 0.025952728
0.035520036 0.009081341 0.04470823 -0.05580813 -0.02343259 0.034734108 -0.05571917 -0.016789608
-0.0048321425 -0.05697251 -0.049852155 -0.032458775 -0.02852417 0.0475028 0.008927462 0.042338207
-0.040026266 -0.0071795844 0.028107576 -0.00072389713 -0.009924111 -0.05716184 0.041170817 0.040040128
0.030170275 -0.0389339 -0.02389576 -0.0550741 -0.019270064 0.026270926 0.0569329 -0.027045924
0.01983196 -0.011397648 0.017603444 0.044812568 -0.013628524 0.04386036 0.006791621 -0.009483034
-0.056104857 -0.0064693 -0.0006019187 0.052000623 0.050876614 -0.034353122 0.04952749 -0.033688065
-0.004419382 0.049234763 -0.02177777 -0.010661504 -0.02575912 -0.002478775 -0.014483336 -0.04154393
0.04484421 -0.012794304 0.028476952 -0.03943856 -0.04911063 -0.03663735 -0.044186983 -0.025795652
0.03898618 -0.051286086 -0.066890255 -0.031063322 -0.037612706 -0.014413692 -0.016216647 -0.044569917
-0.03545463 0.030293854 -0.04962147 0.0030515662 0.042656474 0.023375602 -0.06303017 -0.006856417
-0.0067269155 -0.026329756 0.0052837403 0.004936691 0.04321309 -0.06103505 -0.04920988 -0.021374406
-0.039515357 -0.03566797 0.016583405 -0.0021158769 -0.040348634 0.04856081 0.048508912 0.056309346
0.056175206 0.010320513 -0.0546206 0.007313784 0.12211306 -0.0039857817 -0.18951808 -0.08086054
-0.10180138 -0.08054528 -0.015355017 0.051599853 -0.06981418 -0.05835864 0.027244791 -0.043482974
-0.047912817 -0.033883512 0.03755257 0.05185723 -0.012445855 0.027487544 0.017125454 -0.010083005
-0.05405776 -0.02653172 -0.021808753 0.021376332 -0.016364159 -0.039604515 -0.014383054 -0.031218786
0.039673537 0.012608288 -8.314951e-05 -0.04395734 -0.030466326 0.04016423 0.024398627 0.02283539
0.041246306 0.02004594 0.055026136 -0.040919535 -0.02958412 -0.005095133 -0.026222045 0.05405477
0.054123297 -0.0053061307 -0.061291847 -0.0063146637 -0.030932805 -0.04468673 -0.025035964 0.019070376
0.032981344 0.030266553 0.057111986 0.06337963 0.035521947 0.026870742 -0.032982633 0.061362244
0.035047896 0.013759978 0.021541905 -0.0024743068 -0.0019718036 -0.038909316 -0.0062362314 -0.00088180194
0.005971108 -0.0517867 0.05399866 -0.014365246 -0.040850956 0.16422585 -0.05219536 0.015141827
00000000: a729 143d 5bfc 493d 75c9 f43b 475e b9bc
00000010: a66a fb3c dfb6 713d 7357 0c3d 9ace 3cbd
00000020: aecd 41bc 38f3 1aba d8f0 9abd ca92 bbbc
00000030: 94aa 44bd 2b06 21bd e7e4 81bd 2084 4dbd
00000040: c884 9fbc 4345 ef3c bf26 bf3c ecb3 b2bc
00000050: a316 c8bc cda2 093d 640a 8cbc 6eb4 6bbd
00000060: 68b6 f03b 969d 86bc 2151 e5bb 3275 52bd
00000070: c38b 04bd 0015 d73c fa42 b4bc 7f90 41bd
00000080: 63b7 74bc 554f 31bd 607a cdbb 7566 60bc
00000090: 2228 663d 1422 743c bf70 bdba 68b6 49bc
000000a0: 26f8 3dbd 3d97 6dbd eb7e f3bb cd85 053d
000000b0: 44ca 88bd 3842 f33c 66ae 093d 410c 21bd
000000c0: 9781 6d3d 4cdf ab3c cc08 e13c f19e 583d
000000d0: 3d66 463d 8eaa 543d 7a9b 5cbc 7e1f 4a3d
000000e0: cd07 b7bc 6fa0 80bc 19bb 29bd 8df3 823c
000000f0: 707b 303d 9c27 b0bb a948 eebc e478 273d
00000100: 8671 b43b 1765 043d 0a64 6b3d 0faf 13bd
00000110: cca0 523d 8812 37bd 4dce 2d3b d24a 4d3c
00000120: 29de 753d 95a2 10bc 2e53 0b3d 5f8f babc
00000130: d8bd 33bd eeca 81bc e252 3dbd d19a d43c
00000140: 757d 113d e8c9 143c fa1f 373d 1197 64bd
00000150: b4f5 bfbc 5a45 0e3d c939 64bd 5c8a 89bc
00000160: f356 9ebb 025c 69bd c631 4cbd 7ef3 04bd
00000170: 85ab e9bc 4c92 423d 7d44 123c d46a 2d3d
00000180: 95f2 23bd b842 ebbb dc41 e63c eac3 3dba
00000190: bd98 22bc 8922 6abd bba2 283d 1e01 243d
000001a0: a727 f73c 2779 1fbd 0ac1 c3bc 6195 61bd
000001b0: 41dc 9dbc 2036 d73c 7932 693d 6a8f ddbc
000001c0: a276 a23c 33bd 3abc 1935 903c 628d 373d
000001d0: 2c4a 5fbc eca6 333d 3f8c de3b ba5e 1bbc
000001e0: 35ce 65bd 6cfc d3bb 15ca 1dba 9bfe 543d
000001f0: ff63 503d dcb5 0cbd 56dd 4a3d 7ffc 09bd
00000200: 77d0 90bb 64aa 493d 4b67 b2bc 97ad 2ebc
00000210: ca04 d3bc f272 22bb 844b 6dbc f829 2abd
00000220: 90ae 373d 339f 51bc 7f48 e93c 548a 21bd
00000230: 3a28 49bd 0c11 16bd 69fd 34bd 6751 d3bc
00000240: f9af 1f3d 5c11 52bd c2fd 88bd 8278 febc
00000250: c80f 1abd 6827 6cbc c6d8 84bc f28e 36bd
00000260: e038 11bd d12a f83c e23f 4bbd c9fc 473b
00000270: 8eb8 2e3d 317e bf3c f615 81bd cbab e0bb
00000280: 756d dcbb 80b1 d7bc 3a23 ad3b f7c3 a13b
00000290: 3600 313d e3ff 79bd 4d90 49bd 6119 afbc
000002a0: dbda 21bd 9418 12bd ecd9 873c 86aa 0abb
000002b0: 9c44 25bd b3e7 463d 48b1 463d a1a4 663d
000002c0: f917 663d 5e17 293c dab9 5fbd 78a8 ef3b
000002d0: 6916 fa3d 299b 82bb 0711 42be 369a a5bd
000002e0: 3e7d d0bd ecf4 a4bd 9c93 7bbc 5e5a 533d
000002f0: bdfa 8ebd 7809 6fbd 7830 df3c 341b 32bd
00000300: 3b40 44bd 70c9 0abd b9d0 193d 3f68 543d
00000310: b3e9 4bbc 8f2d e13c ae4a 8c3c 3033 25bc
00000320: ab6b 5dbd 0d59 d9bc 45a8 b2bc 6b1d af3c
00000330: 210e 86bc 5838 22bd e7a6 6bbc 8abe ffbc
00000340: b880 223d fe92 4e3c 8e60 aeb8 9d0c 34bd
00000350: 8494 f9bc 3f83 243d a1df c73c 4911 bb3c
00000360: e3f1 283d 6237 a43c 1663 613d 3e9b 27bd
00000370: 655a f2bc 13f5 a6bb 9dcf d6bc 8968 5d3d
00000380: 64b0 5d3d 0ddf adbb 290d 7bbd 3deb cebb
00000390: cb66 fdbc 6f09 37bd 3918 cdbc 7a39 9c3c
000003a0: 7217 073d 90f1 f73c 42ee 693d 2ecd 813d
000003b0: 767f 113d 0820 dc3c cc18 07bd fa56 7b3d
000003c0: 628e 0f3d 8871 613c a678 b03c fb27 22bb
000003d0: 6039 01bb 605f 1fbd 4d59 ccbb ba28 67ba
000003e0: 49a9 c33b 4a1e 54bd b32d 5d3d 355c 6bbc
000003f0: 5553 27bd d22a 283e cdca 55bd 6d15 783c

conv2.bias f4 [64]
0.021207055 0.012432829 -0.025345169 -0.01407934 -0.012015416 -0.013748062 -0.005439125 6.902249e-05
-0.04728631 0.017001709 0.015767535 -0.024716208 0.056061983 -0.034211878 0.05755341 0.0021668628
-0.06117106 0.03312458 0.00543254 0.018725516 -0.025836632 -0.042565048 -0.039798584 -0.04937739
-0.033958126 -0.015927698 0.007327123 0.044696674 -0.05016673 -0.00399111 0.03354308 0.05646645
0.0034088325 0.04201371 0.011107424 0.006366666 -0.008276531 -0.055881154 -0.0018538815 0.0013347901
-0.033214904 -0.03230363 0.05222365 -0.042700488 0.06311562 -0.0605402 -0.014809541 0.022240356
-0.06595583 -0.024221025 -0.048796907 -0.015299111 0.020694545 0.0056220256 0.025776649 -0.035699967
0.014727716 0.015163035 -0.00016751628 -0.022509696 0.03790399 0.012764706 0.022155257 0.005772079
00000000: 6bba ad3c 10b3 4b3c aca0 cfbc 08ad 66bc
00000010: 4fdc 44bc 8d3f 61bc b03a b2bb 2bc0 9038
00000020: 4aaf 41bd 2b47 8b3c eb2a 813c a579 cabc
00000030: 40a1 653d c121 0cbd 20bd 6b3d ed01 0e3b
00000040: 818e 7abd a4ad 073d 7303 b23b 4166 993c
00000050: 58a7 d3bc b058 2ebd d703 23bd f23f 4abd
00000060: ad17 0bbd ce7a 82bc 5d18 f03b dc13 373d
00000070: a17b 4dbd dbc7 82bb 7864 093d 5d49 673d
00000080: b866 5f3b 9116 2c3d eafb 353c 779f d03b
00000090: 499a 07bc a3e3 64bd f1fd f2ba 20f4 ae3a
000000a0: 5a0c 08bd d050 04bd 77e8 553d b5e6 2ebd
000000b0: c342 813d 00f9 77bd b8a3 72bc 6831 b63c
000000c0: da13 87bd 2c6b c6bc 44df 47bd 1fa9 7abc
000000d0: 9b87 a93c f838 b83b 8d29 d33c 213a 12bd
000000e0: 854c 713c 616e 783c 4fa7 2fb9 4166 b8bc
000000f0: 3741 1b3d 0f23 513c f17e b53c b523 bd3b

conv3.weight f4 [1, 64, 3, 3]
-0.042961616 0.023379777 -0.009666399 -0.009146128 -0.011320184 0.018074496 -0.014562587 -0.023243474
-0.00011495651 0.012222395 0.0197842 0.035207458 -0.03864154 0.004150931 0.021716954 0.029530162
-0.05027817 0.020454656 -0.019045927 -0.006770381 0.025313107 0.016225656 -0.03397734 0.019603608
0.018697435 0.005389941 0.022213984 -0.0041764365 -0.02271757 -0.043743014 -0.043241818 0.033984546
0.028687637 0.025915671 0.051167596 0.035292223 0.030959489 0.004253826 -0.023599422 -0.0197409
2.0122996e-05 -0.01858492 0.011151047 0.025203394 0.0006852983 -0.030465858 0.030931886 -0.001964366
0.04449472 -0.0119565865 -0.028643448 -0.029607944 -0.009458493 0.025727937 -0.02331362 -0.018871484
0.043517068 -0.018423362 0.008284327 0.013993153 0.026771182 -0.010272422 0.040356603 0.013358137
-0.031098854 0.021143567 0.024015348 0.015516153 -0.014969638 -0.026058068 -0.013327381 -0.010074094
0.03513211 -0.031031502 0.012551935 0.0044972743 -0.004704026 -0.007080096 0.03575698 0.0019983652
-0.03097651 0.012902028 -0.029194271 0.031053426 -0.003798107 0.02907832 -0.01366645 0.023152474
-0.00864596 -0.016857337 0.011808388 0.021677852 0.0038315328 0.008485644 0.047597554 0.03422181
0.0038364208 -0.0038164756 0.018586842 -0.0340392 -0.030175092 0.026399719 0.029795079 0.033047184
-0.016679544 0.015068398 0.02227227 0.012738473 -0.03713828 0.01666761 -0.0046176882 0.014438532
0.0013349444 0.017516635 0.044037677 0.029530056 -0.033150133 -0.024668386 -0.006682895 -0.0017273444
-0.046428066 -0.015002157 0.010731006 0.041437466 0.008420525 0.035575673 -0.039496765 -0.026998801
-0.022574317 0.014274449 -0.023311775 -0.016079383 -0.02197028 -0.025399849 -0.020759549 -0.010757386
0.016160185 -0.007975221 -0.030515298 0.017475504 -0.043674923 -0.014828731 -0.009445324 -0.008778778
-0.009505163 -0.018798033 0.044926357 -0.0033733428 0.026776748 0.023147421 0.012180141 -0.02672504
-0.024549367 -0.021906666 -0.018396918 0.01188798 0.033385754 0.03291995 -0.032218266 0.026135119
-0.013390921 -0.018544178 0.03209456 0.039480466 0.0046557016 -0.014516584 -0.0058078067 -0.022474678
0.014712333 -0.028134415 0.017697828 0.030219046 0.015727056 -0.011187424 0.010847039 -0.00564152
-0.04636641 0.008079916 0.044609 0.0022457247 -0.010491941 0.034195583 -0.006681315 -0.036744703
-0.044363912 0.012155921 -0.0016042026 0.039933234 0.024415523 -0.027172245 -0.0049946615 -0.01571059
0.024443673 -0.005643282 0.024276901 0.046195198 -0.030710587 0.0056146984 -0.021533819 -0.0014193945
-0.021514451 -0.037055977 0.042441927 -0.023725849 0.018827347 0.04957976 0.024630066 -0.033999745
0.039961055 0.022904994 0.041014384 0.008574028 0.022337615 0.031210251 -0.004266523 -0.032327328
0.041308053 -0.028608229 0.027949441 -0.039697047 0.027791979 0.0021924034 -0.026255397 -0.04000678
0.00521051 0.022382269 0.03579786 -0.032155897 0.028556792 0.02923849 -0.024820091 0.0049258536
-0.033639427 0.01573677 -0.026326384 0.022392236 -0.01820232 -0.023816776 0.00896296 -0.038570993
-0.030551903 0.023849444 0.004576331 0.007875789 -0.015671343 -0.02195741 0.016883431 0.030856416
0.019087737 -0.0148901185 -0.015275692 -0.023281926 0.04370071 -0.010348569 0.0036112801 -0.01723487
00000000: 85f8 2fbd f286 bf3c d15f 1ebc a4d9 15bc
00000010: 4b78 39bc f710 943c eb97 6ebc 1969 bebc
00000020: ce14 f1b8 7140 483c 7912 a23c b235 103d
00000030: 9746 1ebd 8804 883b c1e7 b13c 3de9 f13c
00000040: 7bf0 4dbd 8690 a73c 3406 9cbc 12da ddbb
00000050: 6f5d cf3c abeb 843c d32b 0bbd bf97 a03c
00000060: 5d2b 993c 1a9e b03b 1afa b53c 7dda 88bb
00000070: 331a babc e02b 33bd 551e 31bd 6133 0b3d
00000080: 5602 eb3c 1a4d d43c 1d95 513d 948e 103d
00000090: c19e fd3c ae63 8b3b 9353 c1bc abb7 a1bc
000000a0: cecd a837 673f 98bc e2b2 363c 5977 ce3c
000000b0: 97a5 333a 8993 f9bc de64 fd3c 98bc 00bb
000000c0: 1840 363d 8fe5 43bc aaa5 eabc 5c8c f2bc
000000d0: ccf7 1abc 65c3 d23c 34fc bebc 5f98 9abc
000000e0: f43e 323d 97ec 96bc fcba 073c 8a43 653c
000000f0: 3d4f db3c a94d 28bc f74c 253d 16dc 5a3c
00000100: 06c3 febc 4635 ad3c d6bb c43c 7637 7e3c
00000110: 3643 75bc bb77 d5bc 165b 5abc d00d 25bc
00000120: b0e6 0f3d c735 febc a2a6 4d3c df5d 933b
00000130: 3b24 9abb 2600 e8bb e975 123d 01f7 023b
00000140: 73c2 fdbc 0763 533c d328 efbc c163 fe3c
00000150: a9e9 78bb a835 ee3c 3fe9 5fbc 42aa bd3c
00000160: c9a7 0dbc 6618 8abc f877 413c c095 b13c
00000170: 741a 7b3b 5f07 0b3c a7f5 423d 2b2c 0c3d
00000180: 766c 7b3b d61d 7abb 6f43 983c b06c 0bbd
00000190: c131 f7bc 3944 d83c cf14 f43c 7c5c 073d
000001a0: 8aa3 88bc 71e1 763c 5674 b63c 07b5 503c
000001b0: 4f1e 18bd 838a 883c fa4f 97bb 988f 6c3c
000001c0: 4df9 ae3a 0c7f 8f3c da60 343d 04e9 f13c
000001d0: 6fc8 07bd 5b15 cabc 30fc dabb 0f68 e2ba
000001e0: 5b2b 3ebd 9bcb 75bc 1ad1 2f3c 55ba 293d
000001f0: 3ef6 093c ccb7 113d 5cc7 21bd 972c ddbc
00000200: c6ed b8bc 61df 693c 56f8 bebc e9b8 83bc
00000210: 04fb b3bc 5813 d0bc ee0f aabc bf3f 30bc
00000220: 5d62 843c 80aa 02bc 38fb f9bc ca28 8f3c
00000230: 7ae4 32bd 35f4 72bc 8fc0 1abc ddd4 0fbc
00000240: 8bbb 1bbc 55fe 99bc b304 383d 4d13 5dbb
00000250: e95a db3c a99f bd3c 378f 473c 79ee dabc
00000260: c11b c9bc 9c75 b3bc 22b5 96bc cdc5 423c
00000270: 80bf 083d 12d7 063d 4df7 03bd 5119 d63c
00000280: 9865 5bbc f6e9 97bc 9675 033d 45b6 213d
00000290: db8e 983b f7d6 6dbc 6a4f bebb d11c b8bc
000002a0: ff0b 713c 257a e6bc 09fb 903c ef8d f73c
000002b0: 07d6 803c 754b 37bc c7b7 313c 80dc b8bb
000002c0: b4ea 3dbd a061 043c edb7 363d 022d 133b
000002d0: 64e6 2bbc ab10 0c3d efee dabb 9d81 16bd
000002e0: efb6 35bd a129 473c 1b44 d2ba 0891 233d
000002f0: 1003 c83c 5498 debc 42aa a3bb 7fb3 80bc
00000300: 193e c83c 48eb b8bb 5ae0 c63c 2d37 3d3d
00000310: c594 fbbc 81fb b73b b167 b0bc fa0a baba
00000320: 133f b0bc 02c8 17bd 96d7 2d3d b65c c2bc
00000330: cf3b 9a3c 2514 4b3d fec4 c93c 5143 0bbd
00000340: 34ae 233d 41a3 bb3c b3fe 273d 147a 0c3c
00000350: 60fd b63c a4ac ff3c 30ce 8bbb a969 04bd
00000360: a232 293d ce5b eabc 3af6 e43c 5f99 22bd
00000370: 01ac e33c 6dae 0f3b 8f15 d7bc 26de 23bd
00000380: edbc aa3b 055b b73c c7a0 123d e7b5 03bd
00000390: efef e93c 8f85 ef3c 8153 cbbc 0e69 a13b
000003a0: 7fc9 09bd 66ea 803c 6eaa d7bc ec6f b73c
000003b0: 081d 95bc 661b c3bc 61d9 123c 9efc 1dbd
000003c0: fc47 fabc e95f c33c 0cf5 953b 7409 013c
000003d0: 3061 80bc 07e0 b3bc 1f4f 8a3c 98c6 fc3c
000003e0: e35d 9c3c aff5 73bc e546 7abc bdb9 bebc
000003f0: 84ff 323d 0b8d 29bc 3aab 6c3b 2430 8dbc
