CNN.pth (torch, 79840 bytes, 5 tensors)

conv1.weight f4 [32, 1, 3, 3]
-0.0092447875 0.08030411 -0.17675516 0.02944264 -0.19985946 -0.1371228 -0.01514721 0.26726028
-0.089700654 -0.073226884 0.07267394 0.21307941 -0.25190282 0.12979372 -0.30919775 0.16777916
-0.2586539 -0.268938 -0.30491507 -0.21319954 -0.014441847 0.21846756 -0.18682058 -0.2497592
0.2817152 -0.22577983 0.13032319 -0.22638676 -0.15250456 -0.26418155 -0.071985826 0.2509402
0.2780765 0.103652574 -0.21565543 0.19407351 0.10078286 -0.072320834 0.1340606 0.2177933
-0.19898792 0.27046984 -0.16598265 -0.16354139 0.21224289 0.032671236 0.1608076 -0.24606661
0.09330671 -0.19516261 -0.36174318 -0.116598584 -0.19776604 -0.31102368 0.0808965 -0.27087632
-0.2573387 0.02458653 -0.11559102 -0.06046512 0.26249623 -0.25903285 -0.17132123 -0.05521202
0.28564188 -0.11515384 0.079522975 -0.15188369 -0.10698243 0.19249316 0.38869947 -0.09938728
-0.12511745 -0.14794183 -0.16421269 -0.27793303 0.24630412 -0.27172092 -0.123439476 0.14174204
0.0318054 -0.089959264 -0.15821113 -0.28784493 0.1115316 -0.046053186 0.2526022 0.14212778
-0.023587462 0.32734725 -0.12099305 -0.027844407 0.19005233 -0.17271198 -0.24779692 0.12219826
-0.20055532 -0.18451025 -0.21567836 0.26746634 0.2149629 -0.06867155 -0.021272128 -0.3213565
-0.26821434 -0.2538303 0.027936623 0.08447763 -0.024530804 -0.008403885 -0.16253182 -0.218128
0.08214381 -0.1381546 0.07424696 -0.06678033 -0.16282122 -0.0049814093 0.20273611 0.1429782
-0.1796773 -0.09045635 -0.27648926 0.3122092 0.025478099 0.14572662 0.038703106 0.34506315
-0.0718626 -0.004787884 0.17744744 -0.14704779 -0.20860831 -0.09246997 0.19697985 0.14461689
0.15055585 -0.13101894 0.27149814 0.05777797 0.17035294 0.2630396 0.021427223 0.02504103
0.009002574 -0.17760919 -0.27080607 -0.16275255 0.28230035 -0.2523139 0.28979588 0.2279164
-0.1865041 -0.32527822 0.27708033 -0.14279535 0.24725361 0.26549786 -0.12406318 0.28577504
0.20095208 0.046601217 -0.27227297 -0.18564986 -0.058844328 0.19519858 0.18500625 -0.0016569133
0.15059304 -0.07260306 0.06124712 -0.1366519 0.01824255 0.12945133 -0.23834349 0.0030213257
0.19720785 0.2345447 0.06839026 0.12737097 0.07623797 0.09513527 0.13104522 -0.2673894
0.05512344 0.14955895 -0.19483241 -0.22770287 0.29686034 0.3216867 0.3330231 0.24474655
-0.3137636 0.01643055 -0.023546537 -0.19419712 0.21083598 -0.12248831 -0.11975717 0.068002194
0.058360893 -0.30720994 -0.09268569 -0.2830339 0.027631067 0.21328004 0.28679714 0.06069117
-0.2448717 0.06260542 0.2362817 -0.17084412 0.062184744 0.27696157 -0.17641218 -0.031342406
-0.2620127 0.2663156 -0.08169693 0.21154092 0.32394624 0.17827167 -0.0031889158 0.17352197
0.3198232 0.27961582 -0.24306366 -0.2973838 0.015784211 0.19131911 -0.1512886 -0.14847578
0.044639625 0.23543026 -0.29708385 -0.25305766 0.19214027 0.30472398 -0.28540462 0.21279395
0.14695862 0.22927725 -0.0064268545 -0.2142159 0.15925986 0.013970175 -0.2727387 0.37051564
0.17423561 -0.19539352 -0.20217817 -0.11348852 0.15546627 0.21821958 0.0035087361 0.20790769
00000000: 7377 17bc 7b76 a43d 4eff 34be b131 f13c
00000010: f5a7 4cbe eb69 0cbe 012c 78bc 57d6 883e
00000020: fab4 b7bd faf7 95bd 13d6 943d 7d31 5a3e
00000030: 68f9 80be a5e8 043e 2b4f 9ebe 4dce 2b3e
00000040: 496e 84be 3eb2 89be d41d 9cbe fb50 5abe
00000050: 7f9d 6cbc f6b5 5f3e e54d 3fbe e0c0 7fbe
00000060: fa3c 903e d432 67be 7173 053e eed1 67be
00000070: 282a 1cbe ce42 87be 4e6d 93bd 3c7b 803e
00000080: 0b60 8e3e cd47 d43d c7d4 5cbe 35bb 463e
00000090: 3e67 ce3d f21c 94bd 2f47 093e 3505 5f3e
000000a0: 7dc3 4bbe 067b 8a3e 5bf7 29be 6577 27be
000000b0: 3356 593e 46d2 053d bfaa 243e e3f8 7bbe
000000c0: 9717 bf3d b5d8 47be 6736 b9be 3dcb eebd
000000d0: 2e83 4abe 7f3e 9fbe 10ad a53d 4db0 8abe
000000e0: e6c1 83be b169 c93c fcba ecbd 46aa 77bd
000000f0: e865 863e f49f 84be d56e 2fbe 0026 62bd
00000100: a73f 923e c7d5 ebbd f1dc a23d 6687 1bbe
00000110: 9b19 dbbd ed1c 453e 9e03 c73e 8f8b cbbd
00000120: ca1e 00be 107e 17be 5f27 28be 3d4d 8ebe
00000130: 2637 7c3e 011f 8bbe d6cd fcbd d324 113e
00000140: 6146 023d 903c b8bd 1902 22be 6960 93be
00000150: ae6a e43d 44a2 3cbd 1355 813e f289 113e
00000160: 7e3a c1bc 0f9a a73e 34cb f7bd f419 e4bc
00000170: 149d 423e 69db 30be 7abe 7dbe 1543 fa3d
00000180: 605e 4dbe 41f0 3cbe cada 5cbe 59f1 883e
00000190: 3c1f 5c3e aba3 8cbd e342 aebc d788 a4be
000001a0: 6453 89be 0cf6 81be 58db e43c 9c02 ad3d
000001b0: d3f4 c8bc 73b0 09bc be6e 26be f25c 5fbe
000001c0: 043b a83d 6678 0dbe ca0e 983d 20c4 88bd
000001d0: 9bba 26be 173b a3bb 0e9a 4f3e e168 123e
000001e0: 53fd 37be 2e41 b9bd 0090 8dbe e2d9 9f3e
000001f0: 72b7 d03c 5c39 153e 2687 1e3d 1eac b03e
00000200: b32c 93bd afe3 9cbb c8b4 353e b293 16be
00000210: 6b9d 55be e560 bdbd 16b5 493e 7316 143e
00000220: 502b 1a3e d429 06be ce01 8b3e 98a8 6c3d
00000230: 0071 2e3e 20ad 863e 2588 af3c d922 cd3c
00000240: 887f 133c 2fdf 35be 18a7 8abe 9ba8 26be
00000250: ac89 903e 4a2f 81be 2060 943e eb62 693e
00000260: eefa 3ebe de8a a6be 79dd 8d3e f238 12be
00000270: 0d30 7d3e 56ef 873e d614 febd 1b51 923e
00000280: 62c6 4d3e ebe0 3e3d 5d67 8bbe ff1a 3ebe
00000290: c006 71bd 23e2 473e 4772 3d3e c92c d9ba
000002a0: 1035 1a3e eab0 94bd 43de 7a3d 7aee 0bbe
000002b0: 6671 953c e48e 043e 5110 74be 6f01 463b
000002c0: dbf0 493e 7c2c 703e 3110 8c3d 896d 023e
000002d0: a722 9c3d 48d6 c23d b830 063e 43e7 88be
000002e0: 1ec9 613d fb25 193e 2682 47be f12a 69be
000002f0: 14fe 973e 1fb4 a43e 0182 aa3e d79e 7a3e
00000300: 9fa5 a0be 5c99 863c abe4 c0bc 9cdb 46be
00000310: 63e5 573e 27db fabd 3f43 f5bd bc44 8b3d
00000320: d50b 6f3d 9f4a 9dbe ffd1 bdbd d2e9 90be
00000330: 8c5a e23c 1566 5a3e 13d7 923e 4e97 783d
00000340: a6bf 7abe 4537 803d d4f3 713e c3f1 2ebe
00000350: 6eb5 7e3d e8cd 8d3e 65a5 34be e560 00bd
00000360: 8726 86be 855a 883e b850 a7bd 2f9e 583e
00000370: 48dc a53e d98c 363e 21fd 50bb beaf 313e
00000380: debf a33e ce29 8f3e aee5 78be b042 98be
00000390: e44d 813c 28e9 433e 66eb 1abe 090a 18be
000003a0: 0ad8 363d a114 713e 601b 98be c690 81be
000003b0: 6bc0 443e c804 9c3e 8e20 92be a8e6 593e
000003c0: 527c 163e a8c7 6a3e 5d98 d2bb 6a5b 5bbe
000003d0: 0415 233e 29e3 643c 68a4 8bbe 3ab4 bd3e
000003e0: d26a 323e 3d15 48be cb07 4fbe ab6c e8bd
000003f0: 8d32 1f3e f474 5f3e d3f2 653b c1e5 543e

conv1.bias f4 [32]
0.12880798 -3.9628743e-05 -0.06025381 0.17519325 0.01104662 0.30856246 0.2582575 -0.1172909
0.032076407 0.24333645 0.21561705 0.038534306 0.21747945 -0.3191375 -0.08135753 -0.24935792
0.26720774 0.05222395 -0.017055647 0.03783474 -0.1215753 0.13672772 -0.31079677 0.01803498
-0.08332738 0.29175544 0.030562907 -0.12411655 -0.10548056 0.030293413 0.18279767 -0.19270493
00000000: 3de6 033e 0a37 26b8 b3cc 76bd dc65 333e
00000010: e2fc 343c e6fb 9d3e 543a 843e 3636 f0bd
00000020: 8d62 033d 312d 793e b7ca 5c3e 26d6 1d3d
00000030: efb2 5e3e fe65 a3be c79e a6bd af57 7fbe
00000040: 74cf 883e c8e8 553d 49b8 8bbc 9af8 1a3d
00000050: 79fc f8bd 5a02 0c3e c120 9fbe 18be 933c
00000060: 8ca7 aabd f860 953e 105f fa3c d130 febd
00000070: 3106 d8bd e429 f83c 502f 3b3e 7154 45be

conv2.weight f4 [64, 32, 3, 3]
0.00073144515 -0.05833972 -0.04625111 0.030556157 -0.04684656 0.016448874 -0.05363087 -0.005045605
-0.03602449 0.021600028 -0.04829459 -0.045864016 0.0059156804 0.03612725 0.03565062 0.17538376
0.054501493 0.03226312 -0.0007401684 0.03903303 -0.11601151 0.08051676 0.02512832 -0.17141585
0.062360838 -0.054977734 -0.08529346 0.0459614 0.0013552103 -0.00030807912 -0.057761673 0.05188934
-0.01825029 0.009476019 -0.04709207 0.020279035 0.017968396 0.016383197 0.031733498 -0.009157889
-0.026069311 0.0053240648 0.018631421 -0.043682635 -0.043899015 -0.053590074 0.020960325 -0.020727307
-0.01435701 -0.011625485 0.03567704 -0.023704132 0.0066645066 -0.016793553 0.0048322454 -0.05200704
-0.016702011 0.011149364 0.030367421 0.030486593 0.045092564 -0.059833515 0.037199218 0.042112198
0.1841511 -0.12705576 0.09060651 0.07357072 -0.084168024 -0.035405867 0.09979769 -0.068164825
0.050769698 -0.044663493 -0.057962164 0.019168235 -0.04274339 0.015020007 0.031523973 -0.018474644
-0.05703823 -0.027135769 0.046426438 -0.053249657 -0.035827253 -0.05958645 -0.036600586 -0.047478247
0.002532682 0.017897027 0.020597735 -0.046329454 -0.035881594 0.04853633 0.0066962014 -0.004490065
0.05085606 0.031599242 -0.011965961 0.04730141 -0.014400716 0.0006787483 -0.0019162125 -0.04812924
-0.04818126 -0.0386941 0.015890822 -0.03713315 -0.027490057 0.042084035 0.0013259368 0.010230615
-0.012441322 0.036314316 0.016949428 0.013376584 -0.060740516 0.039910994 -0.017847339 -0.0058676605
-0.017928388 -0.032525294 0.02971152 0.019431055 -0.054837268 -0.049486827 0.028598502 0.020240044
0.017486539 0.079696156 0.06585859 0.10013963 -0.050553832 0.11189495 -0.0075489813 0.07435737
0.050460573 -0.069692895 0.14426579 0.059650127 -0.0055341553 -0.010503564 -0.003483991 -0.060468554
0.054142103 0.044397064 -0.028635835 -0.054683816 0.016350063 -0.010484431 0.054028362 0.007027912
-0.013009082 -0.04945455 0.012862647 0.0276847 -0.036384076 0.038585015 -0.05757622 -0.026288196
-0.001165419 0.038567748 0.07632616 0.07816674 -0.0012750996 0.10214787 0.12819684 -0.072607934
0.09724924 0.07938079 -0.07979001 -0.010090138 -0.057446893 0.01946897 -0.0115213785 -0.046171848
0.03796891 0.006628509 0.018836258 0.007192344 0.04432263 -0.047473513 0.047525596 0.08727229
0.08842066 -0.013458287 -0.010829673 -0.052476346 -0.024013938 -0.029524678 -0.04421066 0.046797246
0.02995905 -0.036934428 -0.016839568 0.033008672 -0.04481965 -0.054653008 0.15742154 0.009315968
-0.024788318 0.027320905 0.00906164 0.05071824 0.006375954 -0.037120134 -0.042822924 0.0528733
-0.029564578 -0.044138126 -0.053561084 0.029247524 -0.046145935 -0.05559341 -0.027677875 0.037378114
0.056746766 -0.032990385 -0.03551788 0.09103278 0.04600578 -0.07227901 -0.0013713145 0.039332945
-0.0850397 -0.011954051 0.029559059 -0.050205495 0.032529704 -0.012895444 0.016955055 -0.005185838
0.008127312 -0.005003161 0.002732294 -0.04348808 -0.0019536037 -0.0112751145 -0.035206787 -0.014889112
-0.05693412 0.052087646 -0.05961984 0.039626025 0.067776285 -0.028780319 0.050909102 0.10735663
0.049399134 0.0043499125 0.058788132 -0.043034043 0.019923756 -0.018308014 -0.05322513 0.03420124
00000000: 74be 3f3a a1f5 6ebd ce71 3dbd e850 fa3c
00000010: 2ee2 3fbd cabf 863c 0bac 5bbd 9a55 a5bb
00000020: 6a8e 13bd 8bf2 b03c 8cd0 45bd e8db 3bbd
00000030: 53d8 c13b 2bfa 133d 6206 123d cd97 333e
00000040: f53c 5f3d 5526 043d dc07 42ba 19e1 1f3d
00000050: 7197 edbd f9e5 a43d e8d9 cd3c a387 2fbe
00000060: 146e 7f3d 5530 61bd 56ae aebd 0542 3c3d
00000070: 50a1 b13a ae85 a1b9 8197 6cbd eb89 543d
00000080: a281 95bc 4e41 1b3c 9de3 40bd 3820 a63c
00000090: 7532 933c 0e36 863c fcfa 013d f80a 16bc
000000a0: 4f8f d5bc 7e75 ae3b eca0 983c 90ec 32bd
000000b0: 74cf 33bd 4481 5bbd fdb4 ab3c 50cc a9bc
000000c0: aa39 6bbc d178 3ebc 1722 123d 2b2f c2bc
000000d0: ef61 da3b a292 89bc d057 9e3b 5505 55bd
000000e0: a8d2 88bc d2ab 363c 19c5 f83c 05bf f93c
000000f0: fbb2 383d fd13 75bd 355e 183d d77d 2c3d
00000100: 1b92 3c3e e81a 02be e88f b93d 3fac 963d
00000110: 4960 acbd be05 11bd bb62 cc3d 009a 8bbd
00000120: e3f3 4f3d 11f1 36bd bc69 6dbd b406 9d3c
00000130: b113 2fbd 7a16 763c 481f 013d 2358 97bc
00000140: eba0 69bd d54b debc a629 3e3d 501c 5abd
00000150: 99bf 12bd ec10 74bd 7fea 15bd 8d78 42bd
00000160: 5afb 253b c99c 923c 95bc a83c f4c3 3dbd
00000170: 94f8 12bd 08ce 463d cf6b db3b 6521 93bb
00000180: 724e 503d 356e 013d e10c 44bc 20bf 413d
00000190: fbf0 6bbc 07ee 313a 6c29 fbba 2a23 45bd
000001a0: b659 45bd b47d 1ebd 782d 823c ee18 18bd
000001b0: d432 e1bc 4f60 2c3d 0ecb ad3a 4f9e 273c
000001c0: b0d6 4bbc 52be 143d 87d9 8a3c 7629 5b3c
000001d0: 0ccb 78bd b679 233d 9534 92bc 8145 c0bb
000001e0: 8ede 92bc 3e39 05bd 9365 f33c e02d 9f3c
000001f0: 0b9d 60bd b3b2 4abd 6847 ea3c 73ce a53c
00000200: ee3f 8f3c bd37 a33d dee0 863d 0216 cd3d
00000210: 8911 4fbd 2e29 e53d 725d f7bb ad48 983d
00000220: bfaf 4e3d 26bb 8ebd 69ba 133e b153 743d
00000230: dc57 b5bb 2417 2cbc ab53 64bb e0ad 77bd
00000240: 1cc4 5d3d b2d9 353d b395 eabc 23fc 5fbd
00000250: 91f0 853c e4c6 2bbc d84c 5d3d 664a e63b
00000260: 0b24 55bc db90 4abd dabd 523c 06cb e23c
00000270: 7807 15bd 520b 1e3d 0bd5 6bbd 585a d7bc
00000280: f9c0 98ba 37f9 1d3d e450 9c3d e215 a03d
00000290: 3e21 a7ba e732 d13d 0846 033e 78b3 94bd
000002a0: 9c2a c73d 6592 a23d f268 a3bd 1b51 25bc
000002b0: 6f4d 6bbd 647d 9f3c 2ac4 3cbc b11e 3dbd
000002c0: 4a85 1b3d f733 d93b 7f4e 9a3c c1ad eb3b
000002d0: a58b 353d 9673 42bd 33aa 423d d0bb b23d
000002e0: e415 b53d 2680 5cbc f16e 31bc 70f1 56bd
000002f0: e1b8 c4bc bddd f1bc 3d16 35bd 78ae 3f3d
00000300: ae6c f53c 8e48 17bd 22f3 89bc 1a34 073d
00000310: cf94 37bd d5db 5fbd 1d33 213e 00a2 183c
00000320: df10 cbbc 17d0 df3c 4677 143c eebd 4f3d
00000330: 61ed d03b 480b 18bd 1767 2fbd ac91 583d
00000340: 6a31 f2bc 2eca 34bd de62 5bbd 8198 ef3c
00000350: 8503 3dbd eab5 63bd b6bc e2bc cb19 193d
00000360: 4c6f 683d ed20 07bd 327b 11bd 656f ba3d
00000370: 8f70 3c3d 0507 94bd aebd b3ba 951b 213d
00000380: 4b29 aebd edda 43bc d725 f23c 47a4 4dbd
00000390: de3d 053d 6a47 53bc 54e5 8a3c f6ed a9bb
000003a0: 6b28 053c 8ef1 a3bb 4910 333b 8f20 32bd
000003b0: 0808 00bb 42bb 38bc fe34 10bd 76f1 73bc
000003c0: c033 69bd db59 553d ef33 74bd e64e 223d
000003d0: 4bce 8a3d b4c4 ebbc 1086 503d cbdd db3d
000003e0: bf56 4a3d b689 8e3b d3cb 703d 7744 30bd
000003f0: 2537 a33c b0fa 95bc 9802 5abd 9916 0c3d

conv2.bias f4 [64]
0.028880186 -0.03329093 0.018937487 -0.040369987 0.022857506 -0.014190572 -0.067727685 0.060872994
0.03486262 -0.02499907 -0.018646874 0.057121046 0.022635495 -0.02808547 -0.020387067 0.052148312
0.0466864 0.044307366 0.028680645 -0.018645218 -0.039738085 0.012487313 0.038443863 -0.036322374
0.058279227 0.036034185 -0.022483362 -0.034463033 0.05400272 -0.021788968 0.05500913 0.008817226
-0.024468128 -0.015650058 -0.009803894 -0.007888177 -0.036003806 0.00951063 0.058305547 0.04521204
0.016930811 -0.039314725 0.023132628 -0.058618784 0.051987913 -0.008863081 0.039247744 -0.04815757
0.024864484 0.052028354 -0.03166605 0.013790461 0.020530196 0.06282191 -0.023412123 -0.044610042
-0.00823163 -0.019481793 0.035341974 -0.04865843 0.014148573 0.041046087 0.04657956 0.05208217
00000000: 2496 ec3c 125c 08bd ca22 9b3c 005b 25bd
00000010: aa3f bb3c 937f 68bc d0b4 8abd f655 793d
00000020: 1bcc 0e3d daca ccbc 54c1 98bc c2f7 693d
00000030: 136e b93c 8013 e6bc c702 a7bc 7899 553d
00000040: 3d3a 3f3d a47b 353d acf3 ea3c dbbd 98bc
00000050: 67c4 22bd 9697 4c3c 5077 1d3d c5c6 14bd
00000060: 33b6 6e3d 9598 133d 072f b8bc 1c29 0dbd
00000070: f531 5d3d c77e b2bc 4151 613d 2076 103c
00000080: 6271 c8bc 8d34 80bc 83a0 20bc 6a3d 01bc
00000090: ba78 13bd 79d2 1b3c ccd1 6e3d 4330 393d
000000a0: 7cb2 8a3c 7a08 21bd a380 bd3c 401a 70bd
000000b0: 47f1 543d 7536 11bc 3ec2 203d df40 45bd
000000c0: 9ab0 cb3c af1b 553d 43b4 01bd 63f1 613c
000000d0: f12e a83c c6a8 803d c8ca bfbc 05b9 36bd
000000e0: f5dd 06bc 4898 9fbc bfc2 103d 104e 47bd
000000f0: 6bcf 673c f11f 283d 35ca 3e3d 1d54 553d

conv3.weight f4 [1, 64, 3, 3]
-0.032888345 0.039727803 -0.033637676 -0.016310262 0.042309884 -0.031312417 0.025560498 0.025237085
0.0011286874 0.02411502 0.0074686497 -0.017418388 0.023584109 -0.007216786 -0.0072560376 0.02566538
0.002740401 -0.018369747 0.027900236 0.02648948 0.031122075 -0.04020779 -0.0034359165 -0.025588099
0.011143083 -0.017984428 0.012668399 0.021000633 -0.008713535 0.0075441967 -0.037463456 -0.024137992
0.01832603 0.023531886 -0.016430115 0.009293199 -0.009065136 -0.012386392 -0.032551944 0.033739887
-0.03469081 0.011417689 -0.006075082 0.012894217 0.0175976 0.018462574 0.029674562 -0.028517606
-0.025892776 -0.026916917 -0.01705325 0.0017448161 0.026937606 -0.017053034 -0.000754981 -0.008435773
0.00048651153 0.02617393 -0.01686275 -0.001003252 -0.019092675 0.009209167 -0.01762905 0.016449993
0.027673392 -0.012929216 -0.009163552 0.008785229 -0.024807611 0.0353727 -0.031285353 -0.0011121748
-0.014103381 0.0075400607 0.031922348 -0.031113856 0.03811409 0.023959491 0.01786341 -0.02052501
-0.02218969 -0.011977133 0.0108574545 -0.006561776 -0.0054003634 0.022897601 0.017385509 0.01861223
-0.014537212 0.013546723 0.009200362 0.030051507 0.03069798 0.0047034193 -0.016808098 0.04147784
0.013438356 -0.020749846 0.011776092 0.04599823 -0.018925363 0.0028216322 -0.025761597 -0.008822911
0.029855654 -0.0033352769 0.05270008 0.030632094 -0.026505489 -0.027595514 0.019022672 -0.0030068355
-0.016852276 0.0042115804 -0.016845385 -0.028913606 0.016679706 -0.02721768 -0.03694265 -0.01745049
-0.029871581 -0.014255587 0.0045934417 0.006454848 0.023492169 0.047159415 -0.00839701 -0.032861754
0.006903588 0.019364389 -0.016466005 0.044547547 -0.021526547 -0.025440138 0.019318994 0.026678119
-0.016071178 0.016277285 0.045852553 -0.022021592 0.034316912 -0.026610408 0.025391972 -0.017117163
0.037766572 0.014627868 -0.022906492 -0.010038672 0.025989061 -0.03129653 -0.018057648 0.04373713
-0.033016995 -0.015851745 0.03232373 -0.0037102315 -0.030362016 0.027841209 -0.044995517 -0.015224982
0.012585974 0.023603514 -0.0436588 -0.0050721047 0.02489892 -0.012310605 0.020901773 -0.00043574063
0.0344865 -0.036474787 -0.04453641 0.033389173 -0.011217231 0.01493328 -0.033869836 0.04004629
0.010814502 -0.028401632 -0.0065782703 -0.025103692 -0.0075778794 0.032421637 0.027623842 0.041163795
0.035394683 -0.01325564 -0.02378718 0.010817473 -0.02598365 0.005577805 -0.028999789 -0.0052589737
-0.024632622 0.028769221 0.028596617 0.01870592 -0.024136433 0.009308365 -0.02151247 0.04853676
0.01842752 0.03429898 -0.025603732 -0.011710713 0.0051629515 0.010459527 -0.02255568 -0.029484477
0.041431926 0.037834063 0.009514126 0.044272706 0.013507463 -0.03476497 -0.036569662 0.013820956
-0.027199445 0.03765218 0.0060299695 -0.04217886 -0.041665845 -0.010887178 0.022127822 -0.012331088
0.03332961 -0.037568763 0.04279751 0.021988565 -0.028507702 0.010049375 -0.0068657347 -0.012235769
-0.004752829 0.03599014 -0.020863544 -0.028561516 0.0072594876 -0.013940216 -0.028822795 0.042588722
-0.019211454 -0.01250214 0.051921237 0.041371882 -0.022540843 0.039487947 -0.0064976113 -0.034953345
-0.025716798 -0.022852981 -0.02591243 -0.027003832 0.0004290106 0.035782047 -0.011969261 0.04662466
00000000: eeb5 06bd 9fb9 223d a9c7 09bd 199d 85bc
00000010: 214d 2d3d 7341 00bd 4064 d13c 01be ce3c
00000020: 77f0 933a dd8c c53c 93bb f43b 02b1 8ebc
00000030: 7633 c13c ca7a ecbb 0ec4 edbb 3440 d23c
00000040: 4d98 333b 277c 96bc 098f e43c 7700 d93c
00000050: b9f3 fe3c ecb0 24bd 1d2d 61bb 229e d1bc
00000060: 7a91 363c 1454 93bc 1e8f 4f3c 8509 ac3c
00000070: 37c3 0ebc 4f35 f73b 4873 19bd 0abd c5bc
00000080: 7820 963c f1c5 c03c 7398 86bc 8042 183c
00000090: f085 14bc 4bf0 4abc 3055 05bd d632 0a3d
000000a0: f317 0ebd 4211 3b3c 7b11 c7bb 4442 533c
000000b0: d828 903c d33e 973c 1118 f33c c19d e9bc
000000c0: 161d d4bc de80 dcbc 42b3 8bbc 50b2 e43a
000000d0: 41ac dc3c ceb2 8bbc ebe9 45ba 3236 0abc
000000e0: 7912 ff39 b66a d63c c023 8abc 8d7f 83ba
000000f0: 3e68 9cbc 0ce2 163c cc6a 90bc 23c2 863c
00000100: 4fb3 e23c 10d5 53bc b922 16bc ecef 0f3c
00000110: 5539 cbbc f7e2 103d 1225 00bd 65c6 91ba
00000120: de11 67bc 9d12 f73b 02c1 023d 7ce2 febc
00000130: 851d 1c3d b246 c43c 4956 923c 1124 a8bc
00000140: 27c7 b5bc bd3b 44bc 77e3 313c 2b04 d7bb
00000150: 88f5 b0bb c093 bb3c 0e6c 8e3c ad78 983c
00000160: 7d2d 6ebc 13f3 5d3c 1dbd 163c 942e f63c
00000170: 557a fb3c 241f 9a3b 23b1 89bc abe4 293d
00000180: 8d2c 5c3c 95fb a9bc 83f0 403c a468 3c3d
00000190: 5d09 9bbc 22eb 383b fc09 d3bc f98d 10bc
000001a0: d893 f43c a994 5abb 0adc 573d 28f0 fa3c
000001b0: 0a22 d9bc fd0f e2bc 6fd5 9b3c 540e 45bb
000001c0: c90d 8abc 4c01 8a3b 55ff 89bc 3adc ecbc
000001d0: e1a3 883c 9df7 debc 2d51 17bd 54f4 8ebc
000001e0: 3fb5 f4bc 4490 69bc 9584 963b 3183 d33b
000001f0: a672 c03c 3b2a 413d 9d93 09bc 0c9a 06bd
00000200: 7e37 e23b 11a2 9e3c b7e3 86bc 7d77 363d
00000210: 7158 b0bc d667 d0bc de42 9e3c 128c da3c
00000220: b4a7 83bc f157 853c e3cf 3b3d a066 b4bc
00000230: e48f 0c3d 12fe d9bc d302 d03c 4b39 8cbc
00000240: 1fb1 1a3d baa9 6f3c 65a6 bbbc 3e79 24bc
00000250: 03e7 d43c ca30 00bd a2ed 93bc b425 333d
00000260: d43c 07bd 85db 81bc e365 043d 5b27 73bb
00000270: c3b9 f8bc 3f13 e43c 384d 38bd 3472 79bc
00000280: 6735 4e3c 285c c13c 92d3 32bd e633 a6bb
00000290: d2f8 cb3c 6bb2 49bc 323a ab3c 1e74 e4b9
000002a0: b741 0d3d 9666 15bd d06b 36bd 16c3 083d
000002b0: 7ac8 37bc b7aa 743c 19bb 0abd 9407 243d
000002c0: 4f2f 313c 8aaa e8bc 888e d7bb 42a6 cdbc
000002d0: dc4f f8bb 8dcc 043d 654b e23c 5e9b 283d
000002e0: 04fa 103d 2f2e 59bc 55dd c2bc c53b 313c
000002f0: aadb d4bc 05c6 b63b f790 edbc 7853 acbb
00000300: 5aca c9bc 6ead eb3c 7443 ea3c 283d 993c
00000310: c5b9 c5bc 1d82 183c eb3a b0bc 7bce 463d
00000320: 4ff5 963c 167d 0c3d ebbe d1bc 4ade 3fbc
00000330: fa2d a93b 705e 2b3c b0c6 b8bc 6e89 f1bc
00000340: 86b4 293d e4f7 1a3d 23e1 1b3c 4c57 353d
00000350: 684e 5d3c b765 0ebd 12ca 15bd 4b71 623c
00000360: 5fd1 debc 2c39 1a3d 0d97 c53b bec3 2cbd
00000370: cea9 2abd 2260 32bc 6845 b53c 5508 4abc
00000380: a184 083d b4e1 19bd 714c 2f3d 5d21 b43c
00000390: fc88 e9bc 22a6 243c f5f9 e0bb 8978 48bc
000003a0: 9fbd 9bbb 666a 133d 06ea aabc d7f9 e9bc
000003b0: ffe0 ed3b 8165 64bc c81d ecbc 8371 2e3d
000003c0: 5761 9dbc c7d5 4cbc 5dab 543d 9075 293d
000003d0: 93a7 b8bc 1dbe 213d eae9 d4bb 3d2b 0fbd
000003e0: 09ac d2bc 2d36 bbbc 4e46 d4bc 2437 ddbc
000003f0: d4ec e039 3290 123d b81a 44bc 80f9 3e3d
