output/CNN.pth (torch, 598352 bytes, 7 tensors)

encoder.0.weight f4 [64, 1, 3, 3]
000000 ae 1b ac 3e e0 ef c6 3e 75 08 61 be e2 1a 21 3e
       0.33614868 0.38854885 -0.21975882 0.15732911
000010 15 5e 51 3e a0 08 9e 3e 46 41 64 3e ea f7 31 3d
       0.20446046 0.30865955 0.22290525 0.04344932
000020 04 50 83 be a4 13 e1 3c e5 57 83 bd ec a2 5a be
       -0.25646985 0.027475186 -0.06413249 -0.21351212
000030 35 1c e0 3d c7 b8 6a be 17 a7 03 be 6d e4 32 3d
       0.1094288 -0.2292205 -0.12856708 0.043674875
000040 d3 19 59 3c ec eb 23 3e 77 28 8c 3c 8e 5a 87 be
       0.013250786 0.16007966 0.017109139 -0.26436275
000050 e2 5d 2b ba d6 1c 65 be 6b 3b 60 3e 1b 20 65 be
       -0.0006537122 -0.22374281 0.21897666 -0.22375529
000060 5a dc ae 3d cd 53 13 be 66 df 92 be 73 8a 36 be
       0.085381225 -0.14387436 -0.28686064 -0.17826252
000070 f3 a2 44 bd d2 c1 6c 3e b5 83 b0 3e 92 42 81 3d
       -0.048006963 0.23120812 0.34475484 0.063115254
000080 2e 3a 9a 3d 54 4a 39 3e 0c 52 7c 3e 9f 15 5a 3e
       0.07530628 0.1809476 0.24640673 0.2129731
000090 e2 a1 19 be 15 da 96 3e 55 66 d1 bd 38 e9 39 be
       -0.1500316 0.29463258 -0.102245964 -0.18155372
0000a0 71 3c 95 3c 91 20 ec 3d 62 da 16 be 38 34 8d bd
       0.018217297 0.11529649 -0.14731744 -0.068947256
0000b0 e5 12 18 be 4f 28 1b 3c b4 04 9c be 6a 96 74 3d
       -0.14850958 0.00947006 -0.30472338 0.05971376
0000c0 d2 51 04 3e 9d 0d de 3d 76 e1 a9 be 2a 62 02 3c
       0.12921837 0.1084244 -0.33179826 0.007957974
0000d0 8d b0 26 be 3c 9e 99 be 26 6d 96 be 6c 68 d6 3d
       -0.16278286 -0.30003536 -0.2938015 0.10469136
0000e0 06 eb 5f 3e cb 76 25 3e c6 fc 5b be 61 ee 29 bd
       0.21866998 0.16158597 -0.21483144 -0.0414871
0000f0 26 33 87 3e 63 98 c5 38 8d 46 b9 3d d3 10 dc bd
       0.2640621 9.422076e-05 0.090466596 -0.107453965
000100 0f 1f 34 be 37 97 9c be 26 ec 4d bd 5c bc b6 bd
       -0.17589973 -0.30584118 -0.050274037 -0.089226454
000110 c5 06 8a 3e 59 24 59 be 57 10 51 3e 8e c0 5a 3e
       0.2695829 -0.21205272 0.2041639 0.21362516
000120 6b 0b b7 3b 4b 99 8a bd 18 03 a5 be ba a9 ae bd
       0.005586078 -0.067675196 -0.32228923 -0.085284665
000130 c8 fd fb 3c bc f7 8b be db 1b 9e 3e 43 6b 0b 3c
       0.03076066 -0.27337444 0.30880627 0.00850946
000140 d3 c3 b2 3b c0 de af be 7c 13 c4 3d a6 26 bd 3e
       0.005455473 -0.34349632 0.09574029 0.3694355
000150 a2 cb 1c bd 8c b1 dc 3d 44 fa 34 be c9 00 21 bd
       -0.038280137 0.10776052 -0.17673594 -0.03930739
000160 d8 d7 6c be 9f 6f 72 3e df 23 7d be 52 23 8b 3e
       -0.23129213 0.23675393 -0.24720715 0.27175385
000170 97 c0 ec 3c b6 ac d8 3d 55 1e 87 3b 49 4f 7d be
       0.028900428 0.10579817 0.004123489 -0.24737276
000180 69 aa 22 be c7 dd 5c 3e 3e 68 b6 bd aa 73 5e 3d
       -0.15885319 0.21568976 -0.08906601 0.054309525
000190 d4 83 d5 bd b2 5d 4b 3e 3a 34 91 3e fc 48 13 3e
       -0.10425535 0.1985996 0.28360158 0.1438331
0001a0 6e 00 1e 3d 30 74 7d bd af 6a 8a bd 52 7a 99 3e
       0.03857463 -0.061878383 -0.067586295 0.29976135
0001b0 2c c5 b8 bd b6 f9 73 3e 43 84 6f 3e b3 d3 27 be
       -0.090219826 0.23825726 0.23390298 -0.1638935
0001c0 e1 c2 6d be e6 5f 75 be 68 ad a4 3e 93 48 9a 3e
       -0.23218872 -0.23962364 0.32163548 0.30133495
0001d0 88 2a 84 be 5d c4 07 be b1 42 9d 3e b4 9c 60 bd
       -0.258137 -0.132585 0.30714944 -0.054836944
0001e0 06 28 e6 3b 8e 41 a9 3e 5c 21 13 3e 14 3b 9f 3e
       0.007023814 0.33057827 0.14368194 0.3109976
0001f0 98 0c 70 3d 28 f1 14 3e 09 9d 6f be aa 8e ac 3e
       0.05860576 0.14545119 -0.23399748 0.33702594
000200 14 f1 67 3e fd e6 61 3e 1d c4 d8 bc 57 60 91 3e
       0.22650558 0.22060771 -0.026460702 0.28393814
000210 3c 5b 87 3d 04 a8 0d 3d 9a d1 62 be 0d 8a 4f 3e
       0.066091985 0.03458406 -0.22150269 0.20267506
000220 3e c3 b0 bc 07 c9 80 3d 47 b1 20 3e e8 9d 33 3d
       -0.021577474 0.06288343 0.15692626 0.043851763
000230 56 ec 82 bd 7a a2 89 be 14 86 10 be 1e b4 12 bd
       -0.06392734 -0.26881772 -0.14113647 -0.035816304
000240 53 0a fa bd f5 9e 21 bb cf 58 67 be 10 88 11 3e
       -0.122090004 -0.0024661396 -0.22592472 0.1421206
000250 2a be a7 be c6 83 9f bd 39 50 4a be 84 a9 00 bc
       -0.3276227 -0.07788806 -0.19757165 -0.007852916
000260 21 8a 17 3e da cb 9c 3e d5 16 58 3e 5d df 83 3e
       0.14798786 0.30624276 0.2110246 0.2575635
000270 d3 32 e5 3c 0b 2b 7e be b5 0a 91 be 2c 11 5e bd
       0.027978336 -0.24821107 -0.2832848 -0.054215595
000280 ac c4 53 3e 43 f1 54 3e ae 7f 82 3e d4 07 ad be
       0.20680493 0.20795159 0.25488037 -0.33795035
000290 bf 5e 8b 3e 5b 51 0a bd 0f 84 41 be 9c a4 7c 3b
       0.27220723 -0.033768993 -0.18898033 0.0038550263
0002a0 ec 21 2e 3d f6 c2 6f bd f7 98 8f be b6 00 73 be
       0.04251282 -0.05853554 -0.2804639 -0.2373074
0002b0 13 02 81 3e 26 37 9a 3e 67 c7 34 bc ce 9a b1 bd
       0.25196895 0.301202 -0.011033869 -0.08672105
0002c0 19 f9 30 be 24 c0 18 be 03 8f 71 be 69 dc 9b 3e
       -0.17282523 -0.14917046 -0.23589711 0.30441597
0002d0 c0 36 4c be dd 99 58 3e 93 4a 9e 3e e8 1f 05 3e
       -0.1994276 0.21152444 0.3091627 0.13000453
0002e0 10 d0 61 3e 83 b2 b3 bd 04 5e 50 3e c4 af 98 3c
       0.22052026 -0.08774283 0.20348364 0.0186385
0002f0 10 e3 5f be d0 7d 52 be e9 a4 a9 bd 94 41 87 3e
       -0.21863961 -0.20555806 -0.08283407 0.2641722
000300 8d 4b 30 3e 9c d9 b0 3d 69 bf 87 3e 05 72 95 be
       0.1721632 0.08635256 0.26513222 -0.29188552
000310 0d 3a 94 be 7b c5 34 3e 95 73 8f bd 5f 20 b7 be
       -0.2895054 0.17653458 -0.070044674 -0.35766885
000320 cb 6d 6f be e2 b0 b7 bc 9a bb ab 3b 86 9e 22 3e
       -0.23381726 -0.022423211 0.0052408697 0.15880784
000330 a7 b0 3d bc 3e fb 4e 3e 8e bd 68 3e b7 c2 18 3e
       -0.011577762 0.20213029 0.2272856 0.14918028
000340 b9 6b 2d be 57 98 97 be 15 3e e2 3d 1d c0 21 3e
       -0.16935624 -0.29608414 0.110469975 0.15795942
000350 1b 22 55 bd a9 ca 87 3e 92 72 27 3d d1 85 8e 3d
       -0.05203448 0.26521805 0.040880747 0.06959117
000360 4f df 28 be 6b 26 28 3d 45 58 23 be 0f e3 91 3e
       -0.16491435 0.041052263 -0.15951641 0.28493544
000370 42 89 f4 3d cc 24 49 be 6e b3 65 be 0c 1b 00 3e
       0.11940242 -0.19642943 -0.22431728 0.12510318
000380 85 6a ea bd 44 16 82 3e b8 4b cb bd 08 a8 f3 bd
       -0.11446098 0.25407612 -0.099265516 -0.11897284
000390 b7 e8 ca 3d 78 4b 90 be a9 7a c6 3d 76 ba 09 3e
       0.09907668 -0.28182578 0.09691364 0.13450035
0003a0 20 55 9a bd 8b da ee bc 57 ed 05 3e 5e 2b a5 3e
       -0.075357676 -0.029156944 0.13078819 0.3225965
0003b0 15 1b 19 3e 71 42 56 be 47 e9 fb 3d 99 33 2a be
       0.14951737 -0.20923783 0.123003535 -0.16621245
0003c0 a0 0e 15 bd ef 5a 21 3e 83 35 bd 3e 45 4d 67 3e
       -0.0363909 0.15757345 0.3695489 0.2258807
0003d0 31 78 a2 be d4 63 4c 3e 11 0e 26 3d a4 ab 53 3e
       -0.31732324 0.19959956 0.04054076 0.20670944
0003e0 3a 62 8a be 60 16 a4 be 96 49 ac bd 91 1c 04 3e
       -0.27028066 -0.3204832 -0.08412473 0.12901522
0003f0 e3 68 6e bd 67 03 79 be 4e d0 89 bd bf 20 6f be
       -0.058205497 -0.24317704 -0.06729184 -0.23352335

encoder.0.bias f4 [64]
000000 59 5f 53 be 5f ea d5 3c 35 be 9d be b2 80 6a be
       -0.20641841 0.026112733 -0.3080918 -0.22900656
000010 67 07 49 be b6 1b ec bc 9f 75 28 be 7c c8 b1 bc
       -0.1963173 -0.028821807 -0.16451119 -0.021702044
000020 15 91 68 be e7 bd 39 bd 06 71 fe 3d 95 dd 17 bd
       -0.22711594 -0.04534712 0.12423901 -0.03707655
000030 94 3e 98 3e 0a be 29 3d e7 35 87 bd 80 89 88 3e
       0.29735243 0.041441 -0.06602078 0.26667404
000040 af 0a 8a be 1d ac 9c 3e 08 43 93 be 97 37 9f 3e
       -0.26961276 0.30600062 -0.28762078 0.310971
000050 38 93 2d be 4c 13 ec 3d 7d 44 c2 bd b8 7a 96 3e
       -0.16950691 0.11527118 -0.09485719 0.29390502
000060 5f cc 8c be e5 0a e3 3c 1b e1 59 be 05 2a c2 3d
       -0.27499673 0.027715156 -0.21277277 0.09480671
000070 ad 66 2e 3e db 1d b5 3e 71 a8 be 3d 7a 2a b2 bc
       0.17031355 0.3537434 0.093094714 -0.02174877
000080 b9 6e 05 be c3 c2 1b 3e e9 83 18 3e 1e dd dc 3d
       -0.13030519 0.15211014 0.1489407 0.10784362
000090 f2 8b 77 bd 2c 9e 1d 3e 44 55 45 39 de aa 9a be
       -0.060436197 0.15392369 0.00018819148 -0.30208486
0000a0 d1 9d b5 3d c0 07 42 3e 23 f8 94 3e 8c c5 56 be
       0.08867992 0.18948269 0.29095563 -0.20973796
0000b0 b5 75 60 3e 5a b4 3f 3e 74 2d c2 bd 4b 13 8d 3e
       0.21919902 0.18721142 -0.09481326 0.27553782
0000c0 a2 d9 07 ba 85 9d 13 be 47 8f e5 3d 8b b4 bb bd
       -0.0005182271 -0.14415558 0.112089686 -0.09165295
0000d0 d0 cf 9b 3e bf 55 79 3e 4d 65 34 be 6b 20 e9 bd
       0.30431986 0.24349116 -0.17616768 -0.11383136
0000e0 c3 71 00 bd a9 2c b6 3d ce 74 12 be fc bf 4a 3e
       -0.03135849 0.08895237 -0.1430237 0.19799799
0000f0 07 45 d7 3a bd ac 07 3e 80 a6 5f bd c6 ce e0 3d
       0.001642377 0.13249488 -0.054602146 0.10976939

encoder.2.weight f4 [128, 64, 3, 3]
000000 71 45 10 3c 2e 22 e0 3b 2d 2d 28 bd 41 f9 84 3c
       0.008805619 0.006840012 -0.041058708 0.016232135
000010 91 63 1f bd ec 28 84 3b 8e 70 ae 3b 5d 7b d9 3c
       -0.038913313 0.0040331986 0.005323476 0.026548082
000020 da d0 b8 3c f5 39 00 3d 7f e3 3f bb 1e f4 ba 3c
       0.022560526 0.031305272 -0.0029279885 0.022821482
000030 cc 51 e0 bb 74 bf 1c 3d b8 c9 ce 3c 3c 08 f1 3c
       -0.0068456884 0.03826852 0.025242671 0.029422872
000040 0f 9f 8a 3b d5 85 db 3b 94 48 d0 bc 86 34 83 3c
       0.004230387 0.0066993036 -0.025425233 0.016016256
000050 2c 33 c3 3c 83 d4 f2 3b fa 85 09 3d 0a f2 1c 3d
       0.023828112 0.0074105873 0.033575036 0.038316764
000060 87 cc be 3c cf ca 27 bd 56 1c 17 3d 25 42 bb 3c
       0.023290886 -0.040964898 0.036892258 0.022858689
000070 c4 82 83 3c 09 5f d8 3c 4e 5e 2d bd a6 2e 11 bd
       0.016053565 0.026412504 -0.042326264 -0.035444878
000080 76 04 05 bd 32 8b 10 bd 23 f6 07 bd fb d7 03 bc
       -0.032474957 -0.035288997 -0.03319372 -0.008047099
000090 fa 58 66 bc e6 d7 d3 3c 77 c9 13 ba f5 49 e6 bb
       -0.0140593 0.025859784 -0.00056376256 -0.0070278593
0000a0 c9 78 de bc 17 13 ec bc 05 20 30 bd bd d3 64 3b
       -0.027157204 -0.028817696 -0.042999286 0.0034916245
0000b0 36 4f fa 3c ff 0e 95 3c 2b 5d 08 bc b1 16 bc 3c
       0.030555349 0.018195627 -0.008322994 0.022960039
0000c0 07 9a ae bc 56 cc d1 3c 83 f1 1f 3d 8a 46 a5 3b
       -0.02131368 0.02561013 0.039048683 0.0050438093
0000d0 39 f6 10 3c 8f 4c 2d bc 50 29 f8 3b b7 6b e4 bc
       0.008847767 -0.010577335 0.007573284 -0.027883394
0000e0 3e 89 02 bc 6e f7 1b 3d f4 05 e4 b6 7a b9 30 3d
       -0.007967291 0.038077764 -6.7956225e-06 0.043145634
0000f0 5c 4c ec bc a8 ac f6 3a 00 c7 9d 3c 25 b1 39 bd
       -0.028845005 0.0018819766 0.01925993 -0.045334954
000100 04 cb 38 bd 47 03 4c 3b 6b cd 83 bd c8 29 80 39
       -0.045115486 0.0031129883 -0.06435665 0.00024445192
000110 1c 56 14 bc 68 18 58 3d f9 19 80 3d fc 87 b8 3c
       -0.009053733 0.05275765 0.06254954 0.02252578
000120 7d 57 3c bd f3 4d df 3c aa f4 82 bc c8 e6 25 bd
       -0.045981873 0.027258849 -0.015985806 -0.040503293
000130 c4 c7 4b bc 13 cd 2e bd 06 cd 21 bc 09 c9 2a 3d
       -0.012437765 -0.042676043 -0.009875542 0.04169563
000140 41 11 9f bc 79 78 8f bd 61 b9 53 3c db 72 b5 bd
       -0.019417407 -0.070054 0.012922616 -0.088597976
000150 be a7 8e bd 98 12 79 3d 47 a5 b4 bb 18 7a 6e bd
       -0.06965588 0.060808748 -0.0055128667 -0.058221906
000160 d4 07 2a 3d 35 e6 8e 3b af 5c 8f bc 26 d3 c0 3c
       0.04151137 0.004360939 -0.01750025 0.023538183
000170 67 c8 ad 3c 74 90 f9 ba 77 d3 c4 3c 02 eb 9e 3c
       0.021213723 -0.0019040243 0.024026616 0.01939917
000180 66 da 4f bc 5f 8b 50 3b 95 2c 2d 3c ca 7c 1e bc
       -0.012686348 0.0031821353 0.010569711 -0.009673307
000190 23 ab 8c bc 17 7a 7e bd b6 03 ae 3b d7 7d 4f 3b
       -0.017171448 -0.062128153 0.005310501 0.00316607
0001a0 61 ab 1f bd 95 fd 81 bc 71 38 0f bd a8 dc ea 3b
       -0.0389818 -0.015867988 -0.034965936 0.0071674176
0001b0 a2 a3 0a 3d b7 71 54 3c 2f c6 6c ba 6b a4 3c bc
       0.03384746 0.012966565 -0.0009032217 -0.01151381
0001c0 e2 6b 22 bc 72 2f a6 3c 86 32 5d bb 6a 53 04 3d
       -0.009913417 0.020286296 -0.0033752038 0.032306112
0001d0 fb 54 c0 3c 49 55 6f bc ca d1 4e bd d1 9f 7a 3c
       0.023478022 -0.014607736 -0.05049304 0.015296892
0001e0 81 cc e9 3b 7c 30 85 3b f0 84 80 3c 57 f7 1a 3d
       0.0071349745 0.0040646177 0.01568839 0.037833538
0001f0 79 e9 75 3c 7b 41 c5 3c f6 29 0b 3b 86 06 dd bc
       0.0150092775 0.024079075 0.0021234727 -0.02698065
000200 e6 21 3b bd f2 cd 40 3c ee 9e d3 bc 95 9c f6 ba
       -0.045686625 0.011767851 -0.02583262 -0.0018814976
000210 2b 1e dc bc 2d ca f6 3c 38 61 a6 3c 31 c1 2e bd
       -0.026869854 0.030125702 0.02031003 -0.04266471
000220 69 67 d8 3b 93 eb 07 bd a0 56 c4 bc 9b 23 de bb
       0.0066041243 -0.033183645 -0.023967087 -0.006779147
000230 65 15 10 3d bc cc 6f 3c ee fb 21 bc 59 b0 fc bb
       0.035176653 0.014636215 -0.009886725 -0.007711452
000240 1b 60 25 bd 11 11 88 3c 8f 6e e7 bc f8 eb f3 bc
       -0.040374856 0.0166097 -0.02825096 -0.029775605
000250 8c 6a 05 3d c2 51 6c bb 5b 89 0f 3d fe b2 dc 3c
       0.032572314 -0.0036059474 0.0350431 0.026940819
000260 58 fa 1f 3d 76 2e 21 3d 57 1d e5 3c 2f c9 2a bc
       0.039057106 0.03935095 0.027968092 -0.0104239425
000270 c8 c1 9d 3d f0 23 7b 3d 74 77 80 3c 32 50 28 bd
       0.077029765 0.06131357 0.01568196 -0.041092105
000280 b6 0e 69 bc c2 ad 21 bd 8f 30 f9 bc 8a cb 3d 3c
       -0.014224699 -0.03947235 -0.030418662 0.011584172
000290 35 2e a3 ba f9 73 bc 3d 07 38 da 3d 58 9e dd 3d
       -0.0012449684 0.092018075 0.106552176 0.10821217
0002a0 ce 38 87 3b 68 a6 d5 3c 59 b7 3e bd 67 e4 6d 3c
       0.0041266447 0.026080325 -0.046561573 0.014519787
0002b0 b2 22 04 bc 73 c5 b8 3c 65 7d 0a 3c 58 1a fa ba
       -0.008064913 0.022555089 0.008452748 -0.0019081337
0002c0 e3 7c 48 bb 03 bc b5 3c d6 bf f7 3b 42 af 8f bc
       -0.0030592016 0.022184378 0.0075607104 -0.017539624
0002d0 b0 18 7c 3c da 2a 24 bd b8 10 3a bd c5 09 01 3c
       0.015386745 -0.04007993 -0.0454261 0.007875864
0002e0 ab 1c f9 bc bd e8 37 bd b8 d6 5c bd 10 72 6c ba
       -0.030409178 -0.04489969 -0.05391571 -0.0009019682
0002f0 f2 ee d7 3c a9 a9 e0 3c cf aa 25 3c e9 3a 02 3d
       0.026359055 0.02742465 0.010111525 0.031794462
000300 16 ad 77 bc da e1 1c 3d db 4b 24 bd c9 59 07 bd
       -0.0151169505 0.038301326 -0.040111404 -0.03304461
000310 11 96 4d bc c6 85 c2 bb e7 56 25 bd 60 57 30 bd
       -0.012547986 -0.005936357 -0.04036608 -0.043052077
000320 0a a5 08 bb f6 43 01 bc 72 c8 9a 3c 09 f7 e1 3b
       -0.0020850324 -0.007889738 0.018894408 0.006895904
000330 6e 59 33 3c 10 ae a2 3c ea 0e 66 3d ef 60 33 3c
       0.010946615 0.01985839 0.056166567 0.010948404
000340 94 6e 09 3c 59 0b 93 ba 88 c3 e5 ba 60 3f 3c bc
       0.00838818 -0.0011218592 -0.0017529586 -0.011489719
000350 6c 76 1c bd 5d f6 b8 bb 71 e1 ad bb e2 28 11 3d
       -0.038198873 -0.005644603 -0.0053064157 0.03543938
000360 f7 22 05 3c 5f 9f 31 bd 26 33 86 bb 66 8f bd bc
       0.008126012 -0.04336488 -0.004095453 -0.023139667
000370 7b c8 7c bc 0b 8c 03 3d 09 42 21 3c 76 11 77 bc
       -0.015428658 0.032115977 0.009842404 -0.015079847
000380 e7 bb d7 bc ca af 78 bd 95 4c 4c 3d 79 22 d8 bc
       -0.026334716 -0.06071452 0.04987772 -0.026383625
000390 a1 6b 87 3d 32 0e 09 3e 1f 33 4c 3c 94 f2 17 bc
       0.066123255 0.13384321 0.01246336 -0.009274144
0003a0 52 65 b8 3d 15 f3 d5 bc 99 bd 29 3c 94 53 49 39
       0.090037 -0.026116887 0.010360145 0.00019199989
0003b0 00 ed aa bc c1 de 19 bd 26 78 eb bc 05 e6 8e bc
       -0.020864964 -0.03756595 -0.028743815 -0.017443666
0003c0 72 51 d2 3c 0a d0 5e bd 9c e7 9d 3a 50 30 f1 3c
       0.025673602 -0.05439762 0.0012047174 0.029441983
0003d0 c6 58 b5 39 bc ce 2b bd aa dd 52 3c 2b fe a3 bc
       0.00034589152 -0.041945204 0.012870232 -0.020018658
0003e0 34 31 0d 3d f7 c0 89 bc a0 f1 cd 3c a2 38 ec 3b
       0.034470752 -0.016815646 0.02513963 0.0072088996
0003f0 fb 62 3b bd af 03 a6 3c d9 db 8d 3c 19 d9 20 bd
       -0.045748692 0.020265428 0.017316746 -0.03926954

encoder.2.bias f4 [128]
000000 0f 0e 04 3d ae 01 f7 3c 37 da 10 bd 5b 06 2a 3d
       0.03223997 0.030152168 -0.035364356 0.041509967
000010 80 26 62 3c f8 c1 14 bd 0a 6c b6 bc 6b 2a b7 3c
       0.013803124 -0.036317796 -0.022268314 0.022359094
000020 bd 15 41 bc e3 8d bd bb b5 7d 38 bc 42 73 87 bc
       -0.011784968 -0.0057847365 -0.01126044 -0.016534451
000030 1c be e3 bc ec 0d e2 bc 5e 6b a3 bc 4a 17 a8 3c
       -0.027800612 -0.02759453 -0.019948658 0.020518918
000040 c3 97 2e ba ef ca 88 bc 2e de 03 3c 5d 27 a7 3c
       -0.00066601875 -0.016698329 0.008048577 0.020404512
000050 8a 7f 16 bd 45 7d 09 ba 5e 75 cc bc 6d 4b cc bc
       -0.036742724 -0.0005244802 -0.024958309 -0.02493831
000060 f1 28 8a 3c 7a 79 2f bd 56 b0 df bc b3 6b e8 3c
       0.016865226 -0.04284046 -0.027305763 0.028371667
000070 05 60 4c bb bb 13 de bc fe fb 0b 3d f7 ff b6 3b
       -0.0031185162 -0.027109018 0.034175865 0.0055847126
000080 2c 8f 34 bd ca f9 1d 3d 21 7f f8 37 90 2f 90 3c
       -0.04408185 0.038568296 2.9623103e-05 0.017600805
000090 ca 71 5c bc 47 df 23 bd 4d c7 d8 3b 01 16 48 bd
       -0.013454864 -0.040007856 0.0066155554 -0.04884911
0000a0 10 01 7b bb b8 02 26 bd db 91 ba 3c 57 62 23 3c
       -0.0038300194 -0.040529937 0.022774627 0.0099721765
0000b0 a9 a4 04 3c 8c 9a 9a 3b 2c fd cd bc 7a 6c 10 3d
       0.008095899 0.0047181305 -0.025145136 0.0352597
0000c0 94 4d 8a bc 08 91 c1 bc 4d 2e f7 bc 36 93 ec bc
       -0.016882695 -0.023628727 -0.030173445 -0.02887879
0000d0 7f c1 11 3c a3 f6 5b bc 6d d8 a5 3c a1 ce 0e bd
       0.008896231 -0.013425502 0.020244801 -0.034865025
0000e0 b2 91 02 bd 0f 3d 3b bc 02 eb bb 3a 78 63 33 3b
       -0.031877227 -0.011428132 0.0014337006 0.002737252
0000f0 f5 4d 92 bc dc c2 8d 3c de 23 af 3b a5 5e 80 bc
       -0.017859438 0.01730483 0.005344852 -0.01567013
000100 81 1b 29 3d e5 6a 88 bc ae 21 5a bc 51 80 b8 3c
       0.041285995 -0.016652534 -0.013313694 0.022522124
000110 d1 56 83 3b cb 13 2f 3d 1d ee cd 3c 34 f5 0c 3d
       0.004008152 0.042743485 0.025137955 0.03441353
000120 9d 56 1d bd 7d f4 c4 bc 56 99 e7 3c 63 94 06 3d
       -0.03841268 -0.024042362 0.028271358 0.032856356
000130 90 0a 10 3d fc 6d cf bc a5 85 08 bd cb 54 ca bc
       0.035166323 -0.025321 -0.03333058 -0.024698636
000140 35 94 87 3a 3f c2 f9 3c 5c dd 31 3c 74 7e 20 3d
       0.0010343852 0.030488132 0.010855999 0.039183095
000150 68 d1 04 3d 96 ae 0b 3d 0e 27 2b bd ea 85 ba 3c
       0.032426268 0.034102045 -0.041785292 0.022768933
000160 8e eb 3b 3c 62 31 de bc af 94 20 bd 70 d8 cc ba
       0.011469735 -0.027123157 -0.039204296 -0.0015628468
000170 b5 bc e2 3c c1 07 55 bc 31 17 37 3d 28 d0 20 3b
       0.027677873 -0.013002337 0.04469985 0.0024538133
000180 6f 34 54 3c 9d a0 94 bc dd 9d be 3c 20 30 78 bc
       0.012951954 -0.018142993 0.023268634 -0.015148193
000190 f1 09 18 3c ac d2 39 bd bf 9e 1b bd 7a 17 24 bd
       0.009279714 -0.045366928 -0.03799319 -0.04006145
0001a0 97 81 b7 bc 4e 16 25 bd f7 c9 55 3d a4 26 2f bd
       -0.02240066 -0.040304475 0.05219456 -0.04276146
0001b0 00 7e 8e 3b ed b2 0d bd 8b bb 83 bb 13 59 1a bc
       0.0043485165 -0.034594465 -0.0040201596 -0.009420651
0001c0 42 f5 a0 bc 42 11 df bb 5e 39 26 bd 92 f8 c9 3c
       -0.019648198 -0.006807477 -0.040582053 0.02465466
0001d0 24 7c 00 3d de f7 af bc d1 be f5 3b 47 0f e5 bc
       0.03136839 -0.021480497 0.0074995537 -0.027961386
0001e0 e0 f9 e5 3c c6 57 c3 3c 9e 9d 74 3b 2a 4c aa bc
       0.028073251 0.023845565 0.0037325392 -0.020788271
0001f0 0b 51 ed 3c b0 89 e8 bc fb c1 f6 bc 43 7a 0f 3d
       0.028969308 -0.028385967 -0.030121794 0.035028707

decoder.0.weight f4 [64, 128, 3, 3]
000000 a8 44 8b bb 27 17 e1 bc 35 e8 83 3c dd 2b 83 3c
       -0.004250128 -0.02747686 0.016101936 0.016012127
000010 19 1e cf bc 32 cc 41 3b 64 57 75 3c 8f b4 ec bc
       -0.025282906 0.0029571173 0.014974449 -0.02889469
000020 8b 1c fb bb 4d 0f 80 ba 9f c7 22 bb 3a fe f7 bc
       -0.0076633147 -0.0009770185 -0.0024838222 -0.030272592
000030 16 9d e4 bc 4b 9d d9 3b c4 97 32 bc 17 61 41 bc
       -0.027906936 0.0066410652 -0.010900442 -0.011802933
000040 73 44 23 3b 8c a6 6d 3c 18 34 43 3c 16 14 06 3c
       0.0024912625 0.01450504 0.011914276 0.0081835
000050 d1 ac e3 bb 47 11 cb 3b 6b 8c 6e bc 2e e9 65 3c
       -0.0069480916 0.006197128 -0.014559845 0.014032645
000060 30 73 43 bc 95 ea ca bc 5b cc b8 3c e3 22 49 3c
       -0.011929318 -0.02477006 0.022558382 0.012276384
000070 de f2 6a bd 43 27 89 bd 10 c6 75 bd b1 29 1f bd
       -0.057360522 -0.06696942 -0.06000334 -0.03885812
000080 07 10 95 bd a2 b0 8b ba 48 e6 bb 3c b6 f4 08 3c
       -0.072784476 -0.0010657499 0.022936955 0.008359125
000090 c0 ef 9b 3c de 7a 9e 3c bb 8f d3 bb 19 76 c1 bc
       0.01903522 0.019345697 -0.006456343 -0.023615884
0000a0 05 3a af 3c b9 60 cf 3b ce 2e ef 3b 91 17 ce bc
       0.02138997 0.006328669 0.0072992807 -0.025157722
0000b0 ee ee 20 bc f3 b2 e6 3b a2 da be bc c2 25 33 3c
       -0.00982259 0.0070403754 -0.023297612 0.010934295
0000c0 21 8c 90 bc 0b b6 ee 3c 0b 80 8b 3c cf 4b a3 3c
       -0.017644944 0.02913954 0.01702883 0.01993361
0000d0 9f 68 9d bc b6 58 90 bc 14 c5 cc bc 0b aa 2e 3c
       -0.019214926 -0.017620426 -0.024996318 0.010660659
0000e0 09 db 99 bb 1c f5 0e 3a 47 b2 b1 bc d9 5a ef 3c
       -0.0046953005 0.0005453394 -0.021691455 0.029218124
0000f0 98 8a c2 bc 8b 73 f1 bc 6b 31 c1 bb 27 fd b4 3c
       -0.023747727 -0.02947404 -0.0058957837 0.022093369
000100 84 0d 1c bc 08 8a 81 bc 44 81 0b bd 91 5c 8f bc
       -0.009524707 -0.015812889 -0.034058824 -0.017500194
000110 bf b6 52 bc a8 6f 48 ba b0 ae 70 3c d4 68 a5 3c
       -0.012860953 -0.00076460326 0.014690086 0.020191588
000120 b3 6a 37 3a 40 57 3e 3b eb 4e 37 bc 24 af 3c bc
       0.00069967954 0.0029043704 -0.011188249 -0.011516366
000130 fb d4 f4 bc d3 33 32 3c d0 15 ab bb f8 47 7d bc
       -0.029886713 0.010876614 -0.005221106 -0.015459053
000140 c4 f2 9b bc b3 a0 83 bd a3 5d 01 3d 85 cf 52 3d
       -0.019036658 -0.06427135 0.03158344 0.051467437
000150 82 2e 05 3d a6 34 01 3d e0 b5 3d 3d 4d 27 73 3c
       0.032515056 0.03154435 0.046316028 0.014840913
000160 4c 4b 98 bc 5e 36 70 3a 76 6d 4d bc 0f 14 f3 3b
       -0.018590592 0.0009163375 -0.012538305 0.0074181627
000170 2a 9e 26 bc f1 04 b4 39 d8 89 b3 bb 23 39 75 bc
       -0.010169545 0.00034335957 -0.0054790787 -0.014967236
000180 ba 4f 07 bc 97 fa 0c bd 23 3d 7f bc a6 a0 80 bd
       -0.008258754 -0.03441867 -0.015578541 -0.06280641
000190 b2 a6 a7 3d a6 59 02 bc e3 5e a5 3d f9 e5 b8 3d
       0.081860915 -0.007955944 0.08074739 0.09028239
0001a0 f5 ac 47 3d fd 42 08 3e 3f 77 4b bd 83 e8 f3 3d
       0.04874893 0.13306804 -0.04967427 0.119095825
0001b0 1c f1 d2 bc d5 5f a7 bc 12 d9 97 3c ea a6 d0 bc
       -0.025749736 -0.020431438 0.018536124 -0.025470216
0001c0 9a c7 08 3c 37 f3 9e bc a7 f7 ae bb 78 d3 41 bc
       0.00834837 -0.019403083 -0.005339581 -0.011830203
0001d0 48 07 0d bd f1 a8 f4 3b fa ca e3 ba cd d2 83 3c
       -0.034430772 0.0074664284 -0.0017379217 0.016091729
0001e0 1e a5 0d bd 32 50 7f 3c ec 22 ba 3b 4c cb b3 bb
       -0.034581296 0.015583085 0.0056804325 -0.0054868814
0001f0 d4 9b 33 3c f9 b6 c6 bc d7 9a 49 3b 8d c0 bf bc
       0.010962445 -0.02425717 0.0030762458 -0.023407245
000200 b3 b4 99 3c d0 b8 ff bb 04 2c ad bb 79 aa 0b bd
       0.018762922 -0.007804014 -0.005284788 -0.034098122
000210 ec 62 3d 3b 3b 31 3a 3c 4e fe b8 3c 97 47 d6 bc
       0.0028898073 0.0113642765 0.0225822 -0.026157184
000220 bd 1c 0a bd f9 f2 51 bc 04 83 e8 bc 6f cd ec bc
       -0.033718813 -0.012814277 -0.028382786 -0.028906552
000230 5f 41 87 3b fa a3 98 bc e9 ec f4 3b 40 d6 be 3c
       0.004127666 -0.018632878 0.007474531 0.023295522
000240 db 07 11 3c fd ef 21 3d 25 6f 4e 3d 03 9e b7 bc
       0.008851971 0.03953551 0.050398964 -0.022414213
000250 19 bc 0f 3c fb 73 18 ba d8 7a 8a bc d6 3f 41 3c
       0.008772873 -0.0005815622 -0.01690428 0.011795005
000260 b6 0c 35 3c f5 81 cf bc 49 cd 92 3b 92 9c 84 3b
       0.011050394 -0.025330523 0.0044800383 0.004046985
000270 77 b9 17 3c 20 cf bc 3c ff 71 b5 bc d4 45 bb bc
       0.009260527 0.023047984 -0.022149084 -0.022860445
000280 3c a7 e2 ba b9 b6 7e 3c c8 b2 1a bc 95 a5 2e 3c
       -0.0017292271 0.015546494 -0.009442039 0.010659595
000290 bd 85 0c bd 15 2e 60 3c aa f1 00 3c 6c b2 f8 bc
       -0.03430723 0.013682862 0.007870117 -0.030358516
0002a0 58 f2 40 3b 60 98 ef bc 34 bc 08 bd 9b bc 91 3c
       0.0029441323 -0.029247463 -0.03338261 0.01779013
0002b0 be 9f 2e bc d8 b1 3b bc 12 93 f8 bc 4a 1d 06 3c
       -0.010658203 -0.0114559755 -0.030343566 0.008185694
0002c0 e4 88 08 bd 27 24 94 bb 00 cf 44 3c 9e cf f8 3a
       -0.033333674 -0.0045209113 0.012012243 0.0018982773
0002d0 8e ae 48 bc e1 be ca 3b 59 55 ab 3c 07 7a 9a bb
       -0.012248648 0.0061873053 0.02091472 -0.004714254
0002e0 ab 97 bb 3c c0 90 96 bc 44 c6 be 3c d7 b8 e9 3b
       0.02289947 -0.018379569 0.0232879 0.0071326303
0002f0 cd 8b 06 bd bd e5 17 bc 1d 5a b9 bc 23 77 a9 3c
       -0.03284817 -0.0092710825 -0.022625977 0.020686692
000300 58 2e 0d bc 1d f9 3c 3c aa fc 1a 3c 49 ec d9 bc
       -0.008617006 0.011534003 0.009459654 -0.026601927
000310 ee 49 7e bc ea 0d ab bc 6e d6 32 bc c0 81 b2 bb
       -0.015520556 -0.020880658 -0.010915382 -0.0054475963
000320 b2 e2 e4 3b 63 e9 77 bc ee 7d 4f 3c 1d f5 33 bb
       0.006985032 -0.015131327 0.012664301 -0.0027459331
000330 f2 7a 9a ba e8 82 eb 3b dc aa a3 bc 27 74 4d bc
       -0.0011785908 0.007187236 -0.019978933 -0.0125399
000340 2a 64 d9 bb 60 e7 02 bd f7 b3 db bc 48 52 ca bc
       -0.006634255 -0.031958938 -0.026819212 -0.024697438
000350 35 e4 99 bc 65 6f 04 bd 41 39 8c 3b 91 46 b3 bb
       -0.018785575 -0.032332797 0.004279286 -0.0054710587
000360 b4 f4 ae bc b1 cc 28 3c 93 72 15 bd 01 6e 8a 3c
       -0.021356918 0.0103027085 -0.03648622 0.016898157
000370 09 9d 2d bc bd 33 17 3b 43 fd 7c bc 37 03 36 bc
       -0.010596522 0.002307161 -0.015441242 -0.011109165
000380 2b f5 ea 3b 3b 98 07 bc 70 ce 09 bd fe 17 49 3c
       0.0071703396 -0.008276041 -0.03364414 0.012273787
000390 1e b9 38 bc bf 77 31 bc 39 56 42 bb 91 6e a8 bb
       -0.011274604 -0.010831772 -0.0029653443 -0.0051401337
0003a0 17 88 b4 3c 6f e7 58 bc 1b 88 c7 bc c7 12 a0 3b
       0.022037549 -0.013238772 -0.024356892 0.004885051
0003b0 cf 00 bf 3c 96 ee 22 bc 17 ad 1a bc e4 a9 06 bd
       0.023315815 -0.009944579 -0.009440682 -0.032876864
0003c0 61 6c b5 bc 64 2a ea bc 21 01 0b bd 8e 1e be bb
       -0.022146406 -0.028584667 -0.033936623 -0.0058019822
0003d0 29 5d 9b 3b 3b 8d 8a b8 74 89 28 3c 91 d6 bb bc
       0.00474133 -6.606659e-05 0.010286678 -0.022929462
0003e0 13 b3 82 bc 0b a2 57 bc b2 7e 02 bd 40 05 a4 bc
       -0.01595453 -0.013161193 -0.031859107 -0.020022035
0003f0 e1 a7 93 ba f0 2f f7 bb fa 41 65 bc 22 b4 5f 3c
       -0.0011265242 -0.0075435564 -0.013992781 0.013653787

decoder.0.bias f4 [64]
000000 6e 55 9b 3c 6b 2b f7 bc de 04 f1 3b f1 25 d3 bc
       0.018961634 -0.03017207 0.0073553165 -0.025774928
000010 9e 59 c1 bc 95 15 4d bc dd 9a 09 3d e8 9c b0 ba
       -0.023602303 -0.012517353 0.033594955 -0.0013474496
000020 39 1e 34 bb 89 fb 36 bc 70 9f 76 bc f0 24 c9 bc
       -0.0027483834 -0.011168369 -0.015052661 -0.024553746
000030 a9 46 e3 3a 1a fb 15 bc 11 62 a9 bb 53 d4 1f bb
       0.0017339784 -0.009154106 -0.005169161 -0.002438803
000040 5a bb af bc ed 85 9a 3c 9c e5 a5 bb 39 9f ff 3b
       -0.02145164 0.018862689 -0.005062772 0.0078009632
000050 bd 50 6d 3c 16 f1 6a bc 5b e2 58 bb 9d f5 1a bc
       0.014484582 -0.014339706 -0.0033093903 -0.009457973
000060 a3 5b 1a bc 5d 17 55 3c b8 af f7 bb 16 81 05 bd
       -0.009421262 0.0130060585 -0.007558789 -0.03259381
000070 74 6d ff bc be 1c 91 bc 89 fd f8 bc 5c 5c 06 3c
       -0.031180121 -0.0177139 -0.030394332 0.008200731
000080 ff 61 b0 bc 7d ef 9a bc d2 d0 07 3c d9 5f ae bc
       -0.021531103 -0.018913025 0.008289533 -0.021285938
000090 1a b5 2b ba ca c4 71 3c fd 97 af 3c 67 bd e1 bc
       -0.00065501186 0.014756391 0.021434778 -0.027556134
0000a0 4a cc 4b 3c 4f 31 7a bb 49 88 4b 38 47 8c 2a bb
       0.012438843 -0.0038176363 4.8525897e-05 -0.0026023553
0000b0 9a f3 f8 3a 39 84 ac b7 c7 21 98 3b 9f c1 7c 3c
       0.0018993497 -2.0565569e-05 0.0046426984 0.015427022
0000c0 3d 7d 00 bc 94 41 ee bb b3 51 16 3c fb 4b 7c 3b
       -0.007842359 -0.007271001 0.009174752 0.0038497436
0000d0 6d d6 8c 3b 82 f5 04 ba 3e ac d5 3c ac 80 f0 3c
       0.0042980225 -0.0005071984 0.026083108 0.02935823
0000e0 69 cd d4 bc b3 9c ac 3c 21 af 87 bc c5 34 b7 bc
       -0.025976853 0.021070814 -0.016563 -0.02236403
0000f0 2b 67 c7 3c bc 44 03 bd e2 98 52 3a 42 41 5b 3c
       0.024341187 -0.032047972 0.00080336456 0.013382258

decoder.2.weight f4 [1, 64, 3, 3]
000000 2d eb f2 bc 37 f1 0f bd 41 f7 46 3c 26 b3 5d 3c
       -0.029653156 -0.03514215 0.012143911 0.013531482
000010 35 2d f6 3c 0b 97 1d bd 22 9d ea 3c c5 30 5c 3c
       0.030050853 -0.038474124 0.02863938 0.013439362
000020 d0 f9 04 bd 85 73 15 bd 15 5e 2c 3c b9 bb bd 3c
       -0.032464802 -0.03648712 0.010520478 0.023160802
000030 d9 42 e9 3c 50 d3 a2 3b 52 3d 92 3b 27 7b 60 bc
       0.028474258 0.004969038 0.0044628764 -0.013701237
000040 21 32 a2 3c 65 dc 03 3d 26 ba e3 3b 9e 7b 74 3c
       0.019799294 0.032192606 0.006949681 0.014922051
000050 32 aa a0 3c b4 9c 96 bc 0b 27 83 bc 80 d5 2c bd
       0.019612405 -0.018385269 -0.016009828 -0.042195797
000060 4f cd 94 3a f4 98 d0 3c 80 58 b0 3b 4f c1 83 b9
       0.0011352691 0.025463559 0.005381644 -0.00025130293
000070 67 34 43 bd 66 82 05 3d e7 19 f5 3c 7b d1 0e bd
       -0.047657397 0.03259506 0.029919578 -0.034867745
000080 23 0f a4 3c ef 89 f8 3c 45 22 93 bc e6 c3 51 3c
       0.020026749 0.03033921 -0.017960677 0.0128030535
000090 02 5d d7 3b ab 56 1f 3d 9c 23 f3 ba 00 b9 87 3c
       0.0065723667 0.038901012 -0.0018550041 0.016567707
0000a0 9d 3a 7e 3c 90 fa b3 bc 6e 12 06 bd 6b 16 70 bc
       0.015516904 -0.021970063 -0.03273242 -0.014653782
0000b0 46 38 b2 3c 15 e6 1d bd aa 5b dd bb e8 e4 8a bc
       0.021755349 -0.0385495 -0.006755312 -0.016954854
0000c0 c7 cb 09 3b f5 b7 0c 3c ae 8b 9e bb 15 ce 61 bc
       0.0021026002 0.008588781 -0.0048384285 -0.013782044
0000d0 a1 21 26 3d d3 5c e0 bc 32 1b b5 3c 46 58 af 3c
       0.040559415 -0.027388012 0.022107694 0.021404397
0000e0 ea 62 2a 3d db 7a 28 bc c6 e6 33 bd 41 e2 fe bc
       0.041598238 -0.010283197 -0.043921255 -0.031113746
0000f0 85 96 a8 bc 73 46 04 bc 20 b2 01 3d 4a 55 12 3c
       -0.020579586 -0.008073437 0.031664014 0.008931467
000100 41 08 fa bc 3a be 1f bd a0 e3 1e bd 1f aa 28 bd
       -0.030521514 -0.038999774 -0.0387913 -0.041177865
000110 01 9d da bc f8 35 1a 3d 54 9f 82 bc d3 a5 22 bd
       -0.026686193 0.037649125 -0.015945114 -0.039708924
000120 a2 6e 9b bc 34 a5 d9 bc 67 d0 f9 3b 0e ed 08 bd
       -0.018973652 -0.026568033 0.0076237204 -0.033429198
000130 08 c3 de bc 54 0d 89 3c 7b 46 e7 bc f1 d4 1c bc
       -0.027192608 0.016729988 -0.02823185 -0.009572254
000140 db 40 7a bc bf 20 81 3c 8c 10 ed bb 7a 76 93 39
       -0.015274252 0.015762685 -0.0072346386 0.00028126297
000150 20 4a 3c bc 98 6e 75 3c 6d b8 48 bd 2f 2d ea 3c
       -0.011492282 0.014979981 -0.049004007 0.028585998
000160 be c1 16 bd 7b 7c 88 3c f6 ae 25 bc 89 97 dd bc
       -0.03680586 0.01666092 -0.010112515 -0.027049797
000170 0e e8 17 bd 51 b1 d9 3c 60 70 84 3c 95 cd e0 bc
       -0.03708654 0.026573809 0.016166866 -0.02744178
000180 41 d7 f7 3c d8 e0 35 3c fc ad 81 3c 6a 2d 5f 3c
       0.030254008 0.01110097 0.015830033 0.013621667
000190 d7 08 ec bc 0c 4e 17 3c de dc 21 3c 37 f1 a7 bc
       -0.028812809 0.009234916 0.009879319 -0.020500762
0001a0 a2 32 01 3d 23 f9 c7 3c d3 e7 13 3c cf f6 42 bd
       0.031542428 0.02441079 0.009027439 -0.047598656
0001b0 37 c1 e3 3c c3 89 e4 bc 2d b1 bf 3b ee 7c 34 bd
       0.027802093 -0.027897721 0.0058499784 -0.044064455
0001c0 f7 c8 72 3b 50 2a 3c bd fd e5 08 3d cf c1 2b bd
       0.0037046054 -0.04593879 0.03342246 -0.041932877
0001d0 9d 67 d8 bb 0f cc 18 bd 31 2e e7 bc 4d 0c 42 3b
       -0.0066041485 -0.03730398 -0.028220268 0.0029609383
0001e0 94 de 39 bc 83 0b 36 bd d9 84 13 3d 84 b7 bf 3c
       -0.011344571 -0.044444572 0.036015365 0.023402937
0001f0 06 2d 38 3b ca f5 2a bd 9f a2 40 ba a9 7a 3a bc
       0.0028103008 -0.04173831 -0.0007348451 -0.0113817835
000200 71 eb f4 bc 39 1b e2 3c c8 86 9b 3c 6d c6 7c 3c
       -0.029897423 0.027600871 0.018985167 0.015428168
000210 df d0 d2 bc 4d 29 a8 bc 91 38 9a bc 80 14 d4 bc
       -0.025734363 -0.020527506 -0.018825801 -0.025888681
000220 af 74 91 bc dd 6f 81 3c fb e6 b6 3c 6b c8 a7 bc
       -0.017755834 0.01580041 0.022326937 -0.020481309
000230 70 06 80 bc f7 27 19 3c 17 5f 76 3b a3 34 86 3c
       -0.01562807 0.009347907 0.00375933 0.016382521
000240 0d 98 8d bc 44 66 cf 3c 89 3d 09 bd 49 6d f3 bc
       -0.017284418 0.025317319 -0.03350595 -0.029715197
000250 b4 92 d7 3c 28 5c 2b bd 6d 48 58 bc d5 45 e2 3c
       0.02631507 -0.041835934 -0.013200861 0.02762119
000260 ae 22 f6 ba bf d1 e8 bc f0 07 e7 3c ba 47 28 bd
       -0.0018778646 -0.028420327 0.028202027 -0.04108403
000270 73 1c ba 3c 3a 13 39 bd 53 de 9d bc 0a ce 14 bd
       0.022718644 -0.04518435 -0.019271052 -0.036329307
000280 56 5c 13 3c e7 77 20 3d c4 b9 0f 3d ce 2a c7 bc
       0.008994183 0.039176848 0.03508927 -0.024312403
000290 5f 34 04 3c 17 80 23 3b 7f 95 5b bc 1f 78 b4 bc
       0.008069127 0.0024948174 -0.013402342 -0.022029934
0002a0 0a e6 68 3c 91 cb 8a bc d1 e7 00 3d 46 52 ef bb
       0.014215002 -0.016942771 0.031471077 -0.007303509
0002b0 aa 7b 34 bc 74 24 ed b8 d8 6f d6 bb 9f 31 f3 3c
       -0.011015812 -0.000113078306 -0.0065440945 0.029686747
0002c0 1d 2d 98 bc 98 fe 17 bd 1d 65 1f 3d 64 3d e9 bb
       -0.0185762 -0.037108034 0.03891479 -0.007117914
0002d0 7b 78 b8 bc 6e 89 68 3c 6b 8f 82 bb 2e 71 37 bb
       -0.022518387 0.014192922 -0.003984382 -0.0027991044
0002e0 e3 ba 88 3c b4 c3 9b 3c 62 89 cb 3c 4b 99 b8 bc
       0.016690677 0.019014217 0.024845783 -0.022534033
0002f0 c0 01 de bc 1b 94 0b bd 39 f4 66 3c 68 05 bb 3c
       -0.027100444 -0.03407679 0.014096313 0.022829726
000300 20 68 95 3c bf c3 08 bd d0 fb f2 3b 25 ac 8b ba
       0.018238127 -0.033389803 0.0074152723 -0.0010656161
000310 bf 5e 08 bd 5b 64 1b bc a5 b6 14 bd d4 02 e9 ba
       -0.033293482 -0.009484376 -0.036306996 -0.0017777332
000320 4f a2 df bc b5 07 04 3d 0f c0 ba bc 49 ed 5b bc
       -0.027299074 0.032233912 -0.022796659 -0.013423272
000330 9d 6d 1c bd a7 de 9f 3b 3e c3 ed bc 4a dc 39 3c
       -0.038190473 0.004878837 -0.029023763 0.011344025
000340 f1 1f a3 bc ad 8d b6 bc 2d 40 9e bc 59 d2 a5 3b
       -0.019912692 -0.022284353 -0.01931771 0.005060476
000350 be f3 2e bd f5 dd b9 bc 15 50 64 bc 95 bd 4a 3a
       -0.04271292 -0.022688845 -0.013935109 0.00077339384
000360 bd b4 34 bd f8 2a 8f 3c 9e 66 92 3c f6 de ae bc
       -0.044117678 0.017476544 0.017871197 -0.02134655
000370 74 85 e8 3c f5 90 3b bc af 25 2a 3b 1e 36 c6 3c
       0.028383948 -0.011448135 0.0025962403 0.024195727
000380 c0 69 b0 3c 80 3a 03 bd e3 ac 51 bc 43 2d cb bc
       0.0215348 -0.03203821 -0.012797567 -0.024801856
000390 25 bb d8 bc 4d 76 16 3c cb 1a 49 3c 4b 8d d9 3c
       -0.026456425 0.009183479 0.012274454 0.026556632
0003a0 ca 42 80 3a 5c 3f 25 bd 70 e4 86 3c bd f6 a2 3c
       0.000978553 -0.040343627 0.01646635 0.019893045
0003b0 d8 92 3f 3c c6 9a 3c bd 30 80 05 3d 85 19 35 3c
       0.011692725 -0.04604604 0.032592952 0.011053448
0003c0 27 37 1f bd 3e 22 c1 3c 69 77 3d bd 52 c6 81 bc
       -0.038870957 0.023575898 -0.046256457 -0.015841637
0003d0 36 45 e2 3c 74 23 25 3c 83 e4 bf 3c 12 9b 0e 3c
       0.027620893 0.010079253 0.023424393 0.008703964
0003e0 ac fa 81 bc 8a ef cd ba 2d df 87 bc 85 a5 1d bc
       -0.0158666 -0.0015711647 -0.01658591 -0.009621982
0003f0 07 d3 b3 bc 6c 78 e4 3b 10 5a cc 39 80 f3 11 3d
       -0.021951212 0.006972363 0.00038977014 0.03563261
