output/CNN.pth (torch, 598352 bytes, 7 tensors)

encoder.0.weight f4 [64, 1, 3, 3]
0	0x3e0f187c	0.13974184
1	0xbe8f6c22	-0.28012186
2	0xbe54b2b9	-0.20771302
3	0xbe62973a	-0.22128001
4	0x3e8de1b7	0.2771127
5	0xbe0078b3	-0.12546043
6	0x3d7b3bc1	0.061336283
7	0x3e2f436a	0.1711556
8	0xbea44cb6	-0.32089776
9	0xbca0e8aa	-0.019642193
10	0x3e4ff4a3	0.20308165
11	0xbe68c239	-0.2273034
12	0x3e43f194	0.19135123
13	0xbe6b29dd	-0.22965188
14	0x3d877251	0.06613601
15	0xbd00b3f2	-0.03142161
16	0xbe2f019a	-0.17090455
17	0x3d02293c	0.031777605
18	0x3e120f18	0.1426357
19	0xbe55eb10	-0.2089045
20	0xbe894036	-0.26806802
21	0xbd9581b7	-0.07300132
22	0xbe413fa1	-0.18871929
23	0x3e7f4b83	0.24931149
24	0x3b90d9f9	0.0044205156
25	0x3e4a92a8	0.19782507
26	0x3e29dda9	0.16588463
27	0xbe461c33	-0.19346695
28	0xbde40aad	-0.11134849
29	0x3e6fce0a	0.23418441
30	0xbe2d2e95	-0.16912301
31	0x3dc95026	0.0982974
32	0xbea16234	-0.31520236
33	0x3e287c46	0.16453657
34	0x3e11b8d6	0.14230666
35	0x3e9235db	0.28556713
36	0xbd5bdcf1	-0.053677503
37	0x3d5f03af	0.054446872
38	0xbdb3c834	-0.0877842
39	0xbe740cd7	-0.23833023
40	0x3def0797	0.116713695
41	0x3e0d373c	0.13790601
42	0x3e550f38	0.20806587
43	0x3cca3e0f	0.024687795
44	0xbe147850	-0.1449902
45	0xbe849884	-0.2589761
46	0xbe11a817	-0.14224277
47	0x3e94e153	0.2907816
48	0x3ea24576	0.3169362
49	0xbe524da6	-0.20537433
50	0x3d6a9525	0.05727114
51	0xbdaafabd	-0.08348606
52	0x3dec6921	0.11543489
53	0xbdd31ea7	-0.10308581
54	0xbea0dd64	-0.31418908
55	0xbe1c31da	-0.15253392
56	0x3df2b4ce	0.11850892
57	0xbde82b1b	-0.11336347
58	0x3c189076	0.009311786
59	0xbe823c89	-0.2543681
60	0xbe0b5261	-0.13605644
61	0xbea5fa32	-0.32417446
62	0x3d973b71	0.073843844
63	0xbe9601a2	-0.2929812
64	0x3e0e8f71	0.13921906
65	0x3e8b0e86	0.27159518
66	0x3dcb355f	0.09922289
67	0xbea74193	-0.32667217
68	0x3eaac39a	0.33352357
69	0xbd7df3f2	-0.062000223
70	0xbe32447c	-0.17408937
71	0xbea43316	-0.32070225
72	0xbe850467	-0.2597992
73	0xbda720c4	-0.081605464
74	0x3e8e5b46	0.2780401
75	0xbe91d8f8	-0.28485847
76	0xbea598d9	-0.32343176
77	0xbe231aea	-0.15928236
78	0xbe580895	-0.21097024
79	0xbd8861fd	-0.06659315
80	0xbea5192f	-0.32245776
81	0xbdb7603c	-0.08953902
82	0x3d03cbc4	0.032176748
83	0xbd970dd5	-0.07375685
84	0x3dd8eb01	0.105916984
85	0x3e71bfba	0.23608294
86	0x3e2eb4f9	0.17061223
87	0x3e53e9d6	0.2069467
88	0x3e88849f	0.26663682
89	0xbe8933e4	-0.26797402
90	0x3e4ac8ca	0.19803157
91	0x3e981dd3	0.29710254
92	0x3e7d1f7b	0.2471904
93	0x3e9316d2	0.28728348
94	0xbdd178eb	-0.102281414
95	0xbe358716	-0.17727312
96	0xbe2a84cd	-0.16652222
97	0x3e787a9a	0.24265519
98	0xbe50daf9	-0.20396031
99	0xbeb23469	-0.3480561
100	0xbd506bee	-0.05088418
101	0x3e2caa07	0.16861735
102	0xbe3b6ca9	-0.1830317
103	0x3e481ac6	0.19541463
104	0x3dc0134d	0.09378681
105	0x3e5ce220	0.21570635
106	0x3e3af9e2	0.18259385
107	0xbd097fda	-0.033569194
108	0xbbfe84b0	-0.0077672824
109	0x3d9e510f	0.077303044
110	0x3e3c3128	0.18378127
111	0xbdad9037	-0.084747724
112	0xbe84c7a6	-0.2593357
113	0xbd74c6ec	-0.05976002
114	0x3e48c4e3	0.19606356
115	0x3e51cd1f	0.20488404
116	0x3e65af32	0.22430113
117	0xbe8f5da9	-0.28001145
118	0x3e86f4df	0.26358697
119	0x3e42285e	0.18960711
120	0x3b35b13f	0.0027724055
121	0x3e6c7cc6	0.23094472
122	0xbea4e196	-0.32203358
123	0xbda15b4f	-0.07878744
124	0x3db15c88	0.08660227
125	0xbda19c62	-0.07891156
126	0xbe287ace	-0.16453096
127	0xbe10b663	-0.14132075
128	0x3e36ca5b	0.1785063
129	0x3df80265	0.12109832
130	0xbe8e7b6a	-0.27828532
131	0x3e033e0f	0.12816642
132	0xbe472643	-0.1944819
133	0xbe932f5f	-0.2874708
134	0x3d8ec9ec	0.06972107
135	0x3e1db894	0.15402442
136	0xbe40d874	-0.1883257
137	0xbdab3939	-0.08360524
138	0x3a83f60a	0.0010067832
139	0x3c3ee3ff	0.011651038
140	0x3a081663	0.0005191324
141	0x3ea2319a	0.31678468
142	0x3ea3a0e3	0.31958684
143	0x3e04c569	0.12965931
144	0x3dcab674	0.098980814
145	0x3d303352	0.043017693
146	0xbe63ca42	-0.22245124
147	0xbea45eb0	-0.3210349
148	0xbe9ee0fd	-0.31031027
149	0x3d82e6f8	0.0639171
150	0xbe959e96	-0.29222554
151	0xbccb0de9	-0.024786906
152	0x3e1d019b	0.15332644
153	0xbd19912a	-0.037491955
154	0x3e9cc634	0.30619967
155	0x3d22e007	0.03976443
156	0x3e9b3c7c	0.30319583
157	0x3e13cbdb	0.14433233
158	0x3e8ddf3f	0.27709386
159	0xbe35ee4f	-0.17766689
160	0x3e9faeb9	0.3118799
161	0x3e687b8c	0.2270338
162	0x3e055b3b	0.13023083
163	0xbcb1c95e	-0.021702465
164	0x3e4fd833	0.20297317
165	0x3eab1484	0.3341409
166	0xbda6af2a	-0.08138879
167	0x3e95dfb4	0.29272234
168	0xbdb408fa	-0.08790775
169	0x3d76bc0c	0.06023793
170	0xbddd3a06	-0.10802083
171	0xbd2cd5ab	-0.042195957
172	0xbdb15b7f	-0.086600296
173	0x3e5a4f33	0.21319275
174	0xbdd6cd61	-0.10488392
175	0x3ea4fc45	0.32223716
176	0xbe3e3c54	-0.18577701
177	0xbe791394	-0.24323875
178	0xbd9e11b2	-0.07718219
179	0xbe416897	-0.18887554
180	0xbd426c36	-0.04746648
181	0xbdaf4460	-0.08557963
182	0x3e3cc316	0.18433794
183	0xbc591edf	-0.013251989
184	0xbb4d3617	-0.0031312758
185	0xbe18e4b7	-0.14930998
186	0xbd8730bc	-0.06601092
187	0xbdb1894d	-0.08668766
188	0xbe12c76a	-0.14333883
189	0x3e5a99c7	0.21347724
190	0xbe968eb8	-0.2940576
191	0x3da80e78	0.08205885
192	0x3e3bcfb5	0.18340953
193	0x3d9acacb	0.07558211
194	0xbe8123b3	-0.2522255
195	0x3deec0fb	0.11657902
196	0x3d6440f7	0.055726018
197	0x3e15595c	0.14584869
198	0xbe8704cc	-0.26370847
199	0x3df26598	0.11835784
200	0xbe86ce16	-0.26329106
201	0xbe884e82	-0.26622397
202	0xbd9a5ca4	-0.07537201
203	0xbd422c60	-0.0474056
204	0x3e766f53	0.24065904
205	0xbe86b54d	-0.26310197
206	0x3e17223e	0.14759156
207	0xbd564e06	-0.052320503
208	0xbe45d6b5	-0.19320185
209	0x3e69a445	0.2281657
210	0x3e12162c	0.1426627
211	0x3e542777	0.2071818
212	0x3e95ece8	0.29282308
213	0x3df77188	0.12082201
214	0xbe920add	-0.28523913
215	0x3e43fe70	0.19140029
216	0xbcdc0bcf	-0.0268611
217	0xbe866076	-0.2624547
218	0xbe358803	-0.17727666
219	0x3e89f555	0.26944986
220	0xbe01debf	-0.12682627
221	0xbe8c40c0	-0.2739315
222	0xbdf252f2	-0.11832227
223	0xbe02265c	-0.12709945
224	0xbdd338e2	-0.10313584
225	0x3e29e76d	0.16592188
226	0x3e6b2cc8	0.22966301
227	0xbe50c9f2	-0.20389536
228	0xbdbe3411	-0.09287275
229	0xbd4da20c	-0.050203368
230	0x3db0f43b	0.08640333
231	0xbe2380c6	-0.15967092
232	0xbdaf471b	-0.08558484
233	0x3e5b6b59	0.21427669
234	0x3e60869b	0.21926348
235	0xbe01ac62	-0.12663415
236	0xbdacae24	-0.08431652
237	0x3ea7b9da	0.3275898
238	0xbe7c67fd	-0.24649043
239	0x3df17ce6	0.117914006
240	0x3d98cf10	0.07461369
241	0xbeb4c69f	-0.35307786
242	0xbe672fb1	-0.22576787
243	0xbdcde864	-0.100540906
244	0xbde9e73d	-0.11421058
245	0x3e4ba8ef	0.19888662
246	0xbe75c34f	-0.24000286
247	0xbd3d8425	-0.0462686
248	0x3e918051	0.2841821
249	0xbe9ed90b	-0.31024966
250	0x3dba0aa3	0.0908406
251	0xbe540182	-0.207037
252	0xbd8a9563	-0.067667745
253	0x3ed76741	0.42070964
254	0xbd8ea9c9	-0.06965978
255	0x3e9f2946	0.31086177

encoder.0.bias f4 [64]
0	0xbdb0efcd	-0.08639488
1	0xbe0a3527	-0.13496839
2	0xbc6aa670	-0.014321908
3	0xbd88db68	-0.066824734
4	0x3e46f4a6	0.19429263
5	0x3e29f156	0.16595969
6	0xbe373245	-0.1789027
7	0x3dc413b9	0.09574074
8	0xbdfcd40d	-0.12345133
9	0xbe2e9644	-0.1704951
10	0x3e90f71a	0.28313524
11	0x3e9820be	0.2971248
12	0xbe4266a1	-0.18984462
13	0x3d825afe	0.06365012
14	0x3e80df1a	0.25170213
15	0xbe1dcebb	-0.15410893
16	0x3e157d06	0.14598474
17	0x3d54b8da	0.0519341
18	0xbe530045	-0.20605572
19	0x3e82b84f	0.2553124
20	0xbe851304	-0.2599107
21	0x3eb25ddb	0.3483723
22	0x3dc29806	0.095016524
23	0xbe4d919c	-0.20075077
24	0xbd9b3c53	-0.07579865
25	0x3e2c17b5	0.16805919
26	0xbe59818c	-0.21240824
27	0x3dd49830	0.1038059
28	0xbe472e5f	-0.19451283
29	0x3e5f2863	0.2179275
30	0x3e7b045a	0.24513379
31	0xbd8d34ca	-0.06894834
32	0xbdfc552f	-0.12320935
33	0xbc27fc1e	-0.0102529805
34	0xbea049c1	-0.3130627
35	0x3ddccdbd	0.10781429
36	0x3e0605de	0.13088176
37	0xbe81ca66	-0.2534973
38	0x3d40bb67	0.04705372
39	0xbe2f834f	-0.17139934
40	0xbd85c5b6	-0.06531851
41	0x3def60ae	0.11688362
42	0x3e57a015	0.2105716
43	0xbe45da43	-0.19321541
44	0xbc9c253f	-0.01906073
45	0xbd72e5d1	-0.0593012
46	0xbe9c9e09	-0.3058932
47	0xbdd2db5e	-0.10295747
48	0xbe916a5e	-0.28401464
49	0xbdfc9d1c	-0.12334654
50	0x3d483739	0.04888079
51	0xbd89a7e4	-0.06721476
52	0x3e7975d0	0.24361348
53	0x3e6707a1	0.22561504
54	0xbe810db2	-0.2520576
55	0xbeae3adb	-0.34029278
56	0x3e546bd9	0.20744266
57	0x3e223c5a	0.15843335
58	0x3ddb5115	0.107088245
59	0x3e6d55fd	0.23177333
60	0x3e62412d	0.22095175
61	0xbe143157	-0.14471947
62	0xbe0cfd0f	-0.13768409
63	0xbd84f768	-0.064925015

encoder.2.weight f4 [128, 64, 3, 3]
0	0xbbe9e694	-0.0071380828
1	0xbc478b27	-0.012179173
2	0x3d81cd78	0.06338018
3	0xbc8b0116	-0.016968291
4	0xbc346dc9	-0.011012503
5	0x3cfc74f6	0.03081749
6	0x3ce2eb2e	0.027700033
7	0x3cd56607	0.026049627
8	0xbafa146d	-0.0019079574
9	0xbc87bfdc	-0.016570978
10	0xbd65cd45	-0.056103963
11	0xbd8c9d6f	-0.068659656
12	0xbc2c7933	-0.010526943
13	0xbcb1b4d5	-0.021692673
14	0xbdd02ab1	-0.10164393
15	0xbd24b96c	-0.040215895
16	0xbb3de358	-0.0028974619
17	0x3db17753	0.086653374
18	0x3bcb375c	0.0062016677
19	0x3ba2a319	0.0049632904
20	0xbcabd954	-0.020977654
21	0xbd5180d6	-0.05114826
22	0xbcfbf816	-0.030757945
23	0x3cd9b6b9	0.026576387
24	0xbe153c40	-0.14573765
25	0xbde17c24	-0.11010006
26	0x3ddbd794	0.10734478
27	0xbd7958b5	-0.060875613
28	0xbcb0bdc4	-0.021574862
29	0xbc8e3ee0	-0.017363966
30	0x3b366052	0.0027828407
31	0x3d1c9ed5	0.03823741
32	0x3d3610d2	0.044449635
33	0x3c3e71d3	0.0116238175
34	0x3c8f2696	0.017474454
35	0x3b07fdb4	0.0020750584
36	0xbd29aad6	-0.041422687
37	0xbcbd8ccf	-0.023138432
38	0x3cf195bb	0.029490342
39	0x3cf94bdb	0.030431679
40	0x3d0270cc	0.031845853
41	0xbcf54cf7	-0.029943926
42	0x3da72b11	0.08162511
43	0x3b9fd72a	0.0048779445
44	0x3c82cbb4	0.015966274
45	0xbd697f3a	-0.0570061
46	0x3ac636d4	0.0015122541
47	0xbc4b4388	-0.012406237
48	0xbd6c7409	-0.057727847
49	0xbcfb5269	-0.030678945
50	0x3d2b8845	0.041878004
51	0x3d40705f	0.046982165
52	0xbd2b6aed	-0.04185002
53	0xbd8665f8	-0.06562418
54	0xbbc51286	-0.006014171
55	0x3bf17008	0.0073680915
56	0xbba294de	-0.004961594
57	0x3a591ed5	0.00082824874
58	0xbc898fc7	-0.016792191
59	0x3cba8f74	0.022773482
60	0x3c542bef	0.012949928
61	0x3b1360f1	0.0022488202
62	0x3d193e4a	0.03741292
63	0xbd5db4bf	-0.05412745
64	0xbd0b080f	-0.033943232
65	0x3c9b8c79	0.018987881
66	0x3c8e81bd	0.017395848
67	0x3c720104	0.01477075
68	0x3d03eff7	0.03221127
69	0x3d30b7f7	0.043144193
70	0x3d2eb815	0.042656023
71	0xbcd5010b	-0.026001474
72	0x3c9ec146	0.01937927
73	0xbcd20ddf	-0.02564138
74	0x3b1d5760	0.0024008378
75	0x3ccad458	0.024759457
76	0x3cc1d4ff	0.023661135
77	0xbc624833	-0.013811159
78	0x3ce3cb02	0.027806763
79	0x3c8e38d8	0.01736109
80	0xbb83dc1a	-0.004024041
81	0xbd94fbce	-0.072745904
82	0xbe00c4cd	-0.12575074
83	0xbe013224	-0.12616783
84	0xbd90b007	-0.070648246
85	0xbc81b3a5	-0.015832732
86	0x3d34a34c	0.044101045
87	0xbc04248e	-0.008065356
88	0x3c8fe7cb	0.017566582
89	0x3cc6bf10	0.024261028
90	0x3c532453	0.012887078
91	0x3a8687b5	0.0010263833
92	0x3cc4eea7	0.02403958
93	0x3cfc7da3	0.030821627
94	0xbc5ab203	-0.013348105
95	0x3d15eec6	0.036604665
96	0x3cc94086	0.0245669
97	0x3d4fade3	0.05070294
98	0x3d299cce	0.041409306
99	0xbd6098f4	-0.054833367
100	0xbc75a712	-0.014993446
101	0x3d058237	0.032594886
102	0x3d512131	0.051057044
103	0x3cd1f942	0.02563155
104	0x3cd83638	0.026393041
105	0x3e018efb	0.12652199
106	0xbd746d19	-0.059674356
107	0xbddc5b3c	-0.10759589
108	0xbd4e2b44	-0.05033423
109	0xbc8d799a	-0.017269898
110	0xbd8d92b6	-0.069127485
111	0x3c7e81c9	0.015533873
112	0xbca8b932	-0.02059612
113	0xbd2521b5	-0.04031535
114	0x3dae5773	0.08512773
115	0x3b15b9af	0.0022846272
116	0x3d21cdb5	0.03950282
117	0xbdadac7d	-0.08480165
118	0xbcceeb16	-0.025258582
119	0x3dfef4bc	0.12449023
120	0xbc93cabf	-0.018041013
121	0x3c812210	0.015763313
122	0x3db6405f	0.088989966
123	0x3d384c53	0.044994663
124	0xbb5dcf4d	-0.0033845485
125	0xbc297027	-0.010341681
126	0x3c8c413a	0.017120946
127	0xbd561242	-0.052263506
128	0xbd1bf533	-0.038075637
129	0xbc996326	-0.018724035
130	0xbbeef1de	-0.0072920164
131	0x3d03f15b	0.032212596
132	0x3b129967	0.0022369267
133	0x3d1ac05e	0.037781112
134	0xbc754a4c	-0.014971327
135	0xbc8b9b32	-0.017041776
136	0xbd03c06d	-0.032165933
137	0xbcf5bbda	-0.029996801
138	0xbd0c75a7	-0.03429189
139	0xbd1a42eb	-0.037661474
140	0x3e008717	0.12551533
141	0x3e1c8660	0.15285635
142	0xbd6f64a6	-0.058445595
143	0xbd07cfc5	-0.03315713
144	0x3d1c7a35	0.038202483
145	0x3a8c654f	0.0010711345
146	0x3c9842c1	0.018586518
147	0x3c34fabf	0.011046111
148	0xbd202beb	-0.039104383
149	0x3d07d221	0.03315938
150	0x3d08d4e7	0.033406164
151	0xbcc8d169	-0.024513917
152	0x3cad8294	0.021180429
153	0x3d43fc8f	0.04784828
154	0xbc99b5e1	-0.018763484
155	0xbd4719bb	-0.048608523
156	0x3d5e7999	0.054315183
157	0x3da42663	0.08015134
158	0xbcebd4cf	-0.028787998
159	0xbb9e936e	-0.0048393523
160	0xbbbbc391	-0.0057301004
161	0x3c8aa5fc	0.01692485
162	0xbcebee95	-0.028800288
163	0xbd57afda	-0.05265794
164	0xbd44aa52	-0.048013993
165	0x3d3f8744	0.04675986
166	0x3da8e931	0.08247603
167	0xbc97f8e3	-0.018551296
168	0xbcb2c313	-0.021821534
169	0x3da534df	0.08066725
170	0x3d0e7143	0.034775984
171	0x3c6c3a94	0.014418263
172	0xbd43e6da	-0.04782758
173	0x3ba01137	0.0048848647
174	0x3c768505	0.015046363
175	0xbc95bd5d	-0.018278772
176	0x3d51c364	0.05121173
177	0x3d2cde08	0.042203933
178	0x3d1b690f	0.03794199
179	0xbbd23b4b	-0.0064157597
180	0xbb083c73	-0.0020787984
181	0xbd1eca11	-0.038766924
182	0xbd64bbd0	-0.055843174
183	0x3c26592e	0.010153098
184	0xbcd0afdd	-0.025474483
185	0x3d0a5011	0.033767764
186	0xbcdc702f	-0.026908962
187	0xbcd387b4	-0.025821544
188	0x3c61c2af	0.013779326
189	0x3d44f57c	0.048085675
190	0x3b53f1c5	0.003234015
191	0xbd0ad5d1	-0.033895317
192	0x3c0589aa	0.008150497
193	0x3df4eded	0.11959443
194	0x3dda457b	0.106577836
195	0x3c977340	0.018487573
196	0x3d1ef9bb	0.03881238
197	0x3d42da51	0.047571484
198	0xbcdee4ad	-0.02720865
199	0xbc5cdeb9	-0.013480836
200	0x3d7bd307	0.06148055
201	0x3aa91431	0.0012899694
202	0xbbad0580	-0.0052801967
203	0xbd12df8c	-0.035857722
204	0x3b838fff	0.0040149684
205	0xbc972ccb	-0.018453976
206	0xbd141935	-0.03615685
207	0xbd5ae85c	-0.05344425
208	0xbc6841b1	-0.014175818
209	0xbc91a2b8	-0.017777786
210	0xbcda4bbc	-0.026647441
211	0x3caceaab	0.021107992
212	0x3ca562ae	0.020188656
213	0x3d505814	0.050865248
214	0x3d4116ea	0.047140993
215	0x3c055624	0.008138213
216	0xbcec0864	-0.028812595
217	0x3ceb1b5e	0.028699573
218	0xbc63ee53	-0.013911801
219	0xbd051c68	-0.032497793
220	0x3c6a0a9d	0.014284757
221	0xbc608511	-0.0137036005
222	0x3adee874	0.0017006532
223	0x3ca7cb99	0.020482825
224	0x3ca3ef67	0.020011617
225	0xbc4280f0	-0.011871561
226	0xbda2306f	-0.07919394
227	0xbdc319e4	-0.095264226
228	0x3dbec094	0.09314075
229	0x3be7a306	0.0070689945
230	0xbb36a608	-0.0027869958
231	0x3863d443	5.43187e-05
232	0x3dad9af9	0.08476824
233	0x3d6eacab	0.058270138
234	0x3cb7ecc6	0.02245177
235	0xbd950236	-0.07275812
236	0xbdb0074e	-0.08595143
237	0xbcb16bea	-0.021657903
238	0xbcd6e14f	-0.026230482
239	0xbda92a19	-0.082599826
240	0xbae85101	-0.0017724336
241	0x3d1f107f	0.03883409
242	0x3d46880e	0.048469596
243	0xbd38a92b	-0.045083206
244	0xbd0d6384	-0.034518734
245	0xbd1154f3	-0.035481405
246	0x3d3cc24c	0.046083733
247	0xbca07a1d	-0.019589478
248	0xbd1663a7	-0.03671613
249	0x3d78dee9	0.06075946
250	0x3cf11457	0.029428644
251	0x3c855922	0.016277853
252	0xbb8d6e22	-0.0043161074
253	0x3db52cb8	0.0884642
254	0xbd368579	-0.044560883
255	0xbc15d857	-0.009145818

encoder.2.bias f4 [128]
0	0x3cafee8d	0.021476055
1	0x3ca4dbe9	0.020124393
2	0x3ba6eeb5	0.005094374
3	0xbc8e48ef	-0.017368762
4	0x3c284ab9	0.0102717215
5	0xbce42140	-0.027847886
6	0xbbf78e76	-0.0075548245
7	0x3cac604f	0.021042017
8	0x3cab9bdc	0.020948343
9	0xbb578a42	-0.0032888805
10	0x3cc94710	0.024570018
11	0xbcc429de	-0.023945745
12	0xbc36f74b	-0.011167358
13	0x3ccf3eef	0.025298564
14	0x3c9187c2	0.01776493
15	0xbbf033b9	-0.0073303846
16	0x3ce921d4	0.028458513
17	0xbd1ffaaf	-0.03905743
18	0xbb1d8efd	-0.0024041526
19	0xbc85c3f2	-0.016328786
20	0x3c8254b0	0.015909523
21	0xbc97b87d	-0.018520588
22	0x3d316ac0	0.043314695
23	0x3c93894a	0.0180098
24	0x3d115f86	0.03549149
25	0x3d6b2f9f	0.057418462
26	0xbcdc3b90	-0.02688387
27	0xbbd440b6	-0.0064774407
28	0xbcbb6f85	-0.022880325
29	0x3a8f45a6	0.0010930791
30	0xbc38e03c	-0.01128393
31	0x3a572da9	0.0008208403
32	0xbcb7e51d	-0.022448117
33	0x3caf544c	0.0214025
34	0x3ca416f5	0.020030478
35	0x3cdf86c5	0.027285943
36	0x3c476c28	0.012171783
37	0xbc205a85	-0.009787207
38	0xbce1e74b	-0.02757611
39	0xbce89d7c	-0.028395407
40	0x3b94ba2f	0.0045387964
41	0x3d307235	0.043077666
42	0xbcd95250	-0.026528507
43	0x3b947beb	0.0045313737
44	0x3cfe4022	0.03103644
45	0x3d2b0bdf	0.041759368
46	0xbd2c5a4d	-0.042078305
47	0x3bc594f6	0.0060297204
48	0xbb880d5f	-0.0041519846
49	0xbd2b6ffd	-0.041854847
50	0x3cfcd31a	0.03086238
51	0xba936d81	-0.0011247845
52	0xbcc2a2b0	-0.023759216
53	0xbc06bd87	-0.008223898
54	0xbbcfec49	-0.006345306
55	0xbb8b4cc4	-0.0042510945
56	0xbd1949a2	-0.037423737
57	0xbcb5597a	-0.022137392
58	0xba6bb395	-0.00089912984
59	0xbd00c1f0	-0.031434953
60	0x3ce453af	0.027871935
61	0x3cad1c79	0.02113174
62	0xbd2e6935	-0.042580802
63	0xbb861181	-0.004091442
64	0xbc959bf7	-0.018262846
65	0x3cd7dc5e	0.026350196
66	0x3b3c6204	0.0028744945
67	0xbcbed80d	-0.02329638
68	0xbcc8ad26	-0.024496626
69	0x3c65d6e6	0.014028287
70	0x3b48261f	0.00305403
71	0x3c4ccb1e	0.012499599
72	0x3d30bc4a	0.043148316
73	0x3cab2782	0.020892862
74	0xbd336a57	-0.043802585
75	0x3cb6e598	0.022326276
76	0xbc925ab0	-0.017865509
77	0xbcfe54dd	-0.031046325
78	0x3c990493	0.018678939
79	0xbb85eeb9	-0.004087296
80	0xbbf963f2	-0.0076107914
81	0x3cc08f78	0.023505911
82	0xbd41ae80	-0.047285557
83	0x3d0d2436	0.03445836
84	0xbbdc4daf	-0.006723128
85	0x3cb8ca8f	0.022557525
86	0xbd2674d3	-0.040638756
87	0xbcf19b32	-0.029492948
88	0xba4d1607	-0.0007823412
89	0x3cdaef4a	0.02672543
90	0x3cc34f70	0.02384159
91	0xbce9178c	-0.02845361
92	0x3d0a3835	0.03374501
93	0x3a8756ae	0.0010325515
94	0x3af357ba	0.0018565573
95	0x3bdb0fed	0.006685248
96	0x3cf76dd0	0.03020373
97	0xbc58453b	-0.0132001
98	0x3ce348b2	0.027744625
99	0x3c573695	0.013135572
100	0xbc76cf17	-0.0150640225
101	0xbcce350f	-0.025171785
102	0x3c057d19	0.008147501
103	0x3d248577	0.040166344
104	0x39c191c5	0.00036920435
105	0xbd1f3047	-0.0388644
106	0xbcfde37f	-0.030992268
107	0x3cdde8ae	0.02708849
108	0xbb7c4161	-0.0038491117
109	0x3ce9d7ad	0.028545225
110	0xbcb3888c	-0.021915697
111	0x3c6315ef	0.01386021
112	0x3d5b8cba	0.053601004
113	0xbceb2281	-0.028702976
114	0x3d0a4456	0.033756576
115	0xbc6421fd	-0.013924119
116	0x3cd48288	0.025941148
117	0xbcf3424a	-0.029694695
118	0xbd3001c8	-0.04297045
119	0xbc69b162	-0.014263483
120	0xbc3e0315	-0.0115974145
121	0xb999b0ed	-0.00029314254
122	0xbaafc432	-0.0013409911
123	0xbc3a4b97	-0.011370561
124	0xbcd93ea6	-0.02651913
125	0xbcb7ba7d	-0.022427792
126	0xbd1c2172	-0.038117833
127	0x3d0553b1	0.032550517

decoder.0.weight f4 [64, 128, 3, 3]
0	0x3af63ba1	0.0018786081
1	0x3b1d0dd2	0.0023964536
2	0x3c6eba65	0.014570807
3	0xbc78e7f3	-0.01519202
4	0x3c35da5d	0.011099425
5	0xbccdbdd4	-0.025114931
6	0xbcb1b018	-0.021690413
7	0xbc9c8882	-0.01910806
8	0x3cb9c454	0.022676624
9	0x3c8fd602	0.017558102
10	0x3c19c2d1	0.009384827
11	0x3c7c2d16	0.015391609
12	0x3bc95401	0.0061440472
13	0xbba73cb6	-0.005103673
14	0xbc30af43	-0.010783973
15	0xbd0fee5b	-0.035139423
16	0xbc952be9	-0.018209415
17	0xbb22f37c	-0.0024864366
18	0xbc36e6b0	-0.011163399
19	0x3c92fd1d	0.01794296
20	0xbb8bafdd	-0.004262908
21	0xbc916bd8	-0.01775162
22	0xbc8353a2	-0.01603109
23	0x3c376a6c	0.011194807
24	0xbd0b83ca	-0.03406123
25	0x3ca08123	0.019592827
26	0x3cbd5c82	0.0231154
27	0xbd0e390b	-0.03472237
28	0x3aee5cba	0.0018185594
29	0xbbe2696f	-0.0069095413
30	0xbce91f7c	-0.028457396
31	0xbca6a8d7	-0.020344181
32	0x3ba06573	0.004894906
33	0xbc963762	-0.018336955
34	0xbc35de9c	-0.0111004375
35	0xbcb3d369	-0.021951394
36	0x3cab31fc	0.020897858
37	0xbd0f1db3	-0.034940433
38	0x3c27c8f3	0.010240781
39	0xbd0b9fa8	-0.034087807
40	0xbd04d3e3	-0.032428633
41	0x3ca897eb	0.020580253
42	0x3c8f2deb	0.01747795
43	0x3a06aef6	0.00051377655
44	0x3c91a117	0.017777009
45	0xbbabafe8	-0.0052394755
46	0xbbf26f6b	-0.007398536
47	0xbc50732e	-0.0127227735
48	0x3cb9f61e	0.022700366
49	0xbcbaa88f	-0.022785453
50	0x3ca49b66	0.020093631
51	0xba9dce97	-0.0012039718
52	0x3c136547	0.008996314
53	0x3c9bd278	0.019021258
54	0xbce361cb	-0.027756592
55	0xbcfda38e	-0.030961778
56	0x3c0bedab	0.008540551
57	0xbd0242b1	-0.031801883
58	0xbc74a925	-0.014932905
59	0xbabaf7fb	-0.0014264578
60	0xbb0071b8	-0.0019599032
61	0xbcaa8abc	-0.020818107
62	0x3c12882c	0.008943599
63	0xbcfe0818	-0.031009719
64	0xbb37c78a	-0.0028042519
65	0xbcd925dc	-0.02650731
66	0xbcf7c447	-0.03024496
67	0xbcccc64f	-0.024996905
68	0xbc8c55b3	-0.017130708
69	0xbbb064ad	-0.0053830952
70	0x3cb51b8a	0.022107858
71	0xbc790248	-0.015198298
72	0xbd01d4fd	-0.031697262
73	0x3c367d38	0.011138253
74	0xbcc1dd0e	-0.023664977
75	0x3bf1b749	0.0073765856
76	0xbc9063e8	-0.017625764
77	0xbd085641	-0.033285383
78	0x3c4c0399	0.01245203
79	0x3cbe4639	0.023226844
80	0xbc0b8a20	-0.008516818
81	0x3c1c47c6	0.0095385965
82	0x3c66d8e8	0.0140898
83	0x3c8f45b4	0.017489292
84	0xbb082a67	-0.0020777227
85	0xbc25be83	-0.010116222
86	0x3cb5aead	0.022178018
87	0x3c9d67e9	0.019214587
88	0x3c9a8667	0.018862916
89	0x39bb4d8d	0.000357252
90	0x3c9bdfe1	0.019027652
91	0xbc672401	-0.014107705
92	0xbce3f0f9	-0.027824866
93	0x3bff9851	0.00780014
94	0xbb75a3c5	-0.0037481647
95	0x3cbf3012	0.023338351
96	0xbd0478cd	-0.032341767
97	0xbc35fc2d	-0.011107487
98	0xbb8fad36	-0.004384662
99	0x3c85aae8	0.016316846
100	0xbb92e7ee	-0.0044832146
101	0x3b09b032	0.0021009562
102	0x3b8962c6	0.004192683
103	0x3bbcd125	0.0057622367
104	0x3bf9315e	0.007604762
105	0xbcdbf748	-0.026851311
106	0xbc6e60d0	-0.014549449
107	0x3c412ff5	0.011791219
108	0xbcbf7c38	-0.023374662
109	0x3be077d1	0.0068502207
110	0xbc1696de	-0.009191243
111	0x3c8e2d05	0.017355451
112	0xbcfe3c8c	-0.03103473
113	0x3c639640	0.013890803
114	0xbcf3052a	-0.029665548
115	0xbc9ac42f	-0.018892376
116	0xbd0bc8d8	-0.034127086
117	0xbc601837	-0.013677648
118	0xbd062e53	-0.032759022
119	0x3b4af9c5	0.0030971628
120	0x3c3a860f	0.011384501
121	0xbd0a9f3c	-0.033843264
122	0x3c834346	0.01602329
123	0xbc151b38	-0.009100728
124	0x3c839e2d	0.016066635
125	0x3b98c931	0.0046626558
126	0xbbf320f8	-0.0074197017
127	0xbcea0e5b	-0.028571298
128	0xbceb8de5	-0.028754184
129	0xbcedeb0c	-0.029042743
130	0x3aa5aaa8	0.001263936
131	0x3be7f50d	0.007078773
132	0xbcbf0aa8	-0.023320511
133	0xbcefc72c	-0.029269777
134	0xbc98c135	-0.018646816
135	0x3cd6f81e	0.026241358
136	0x3ba11748	0.0049161054
137	0x3c0504ca	0.008118818
138	0x3cbb543d	0.022867316
139	0xbca43eca	-0.020049471
140	0xbc0ebc7b	-0.008711929
141	0xbc107658	-0.008817278
142	0xbcc2da83	-0.023785835
143	0xbb576519	-0.0032866655
144	0xbca68098	-0.02032499
145	0xb9945ea1	-0.00028299264
146	0xb992f5a1	-0.00028030298
147	0xbc6cf7f4	-0.0144634135
148	0xbd09ee61	-0.0336746
149	0xbcbdd8e1	-0.023174705
150	0xbc6121f7	-0.013741008
151	0x3b39ea44	0.0028368393
152	0xbca9990f	-0.020702867
153	0xbbf62c0d	-0.0075125755
154	0xbd0423c8	-0.032260686
155	0x3ca45101	0.020058157
156	0x3bb048d0	0.0053797737
157	0xbc74a710	-0.014932409
158	0x3a9a272e	0.0011760944
159	0xbcd922ed	-0.026505912
160	0xbd068902	-0.032845505
161	0x3c96b8ac	0.018398605
162	0xbc2021ce	-0.009773685
163	0x3ca9b970	0.020718306
164	0xbbcdd17a	-0.006281075
165	0xbcac57d6	-0.021037977
166	0x3be6c89b	0.007042957
167	0x3cab349f	0.020899115
168	0xba95ab06	-0.0011418767
169	0x3c8a9663	0.016917413
170	0xbbecf31d	-0.00723113
171	0xbcc2ac57	-0.023763819
172	0xbcb5a796	-0.022174638
173	0xbb35e778	-0.0027756374
174	0xbbc97589	-0.0061480445
175	0x3ca3eb1c	0.02000957
176	0x3c904882	0.0176127
177	0xbcf19a1e	-0.029492434
178	0xbbf4aea4	-0.007467108
179	0xbc6fc339	-0.014633947
180	0xbbcc8ac4	-0.006242128
181	0xbb0670db	-0.0020514044
182	0xbcde6d4e	-0.02715173
183	0x3bc158a6	0.0059004603
184	0xbce6e499	-0.028185176
185	0xbc6a38e3	-0.014295789
186	0xbb695ce1	-0.0035608339
187	0xbc937e4a	-0.018004555
188	0xbcf2087d	-0.029545063
189	0xbcb28cd4	-0.021795668
190	0xbc9bcc10	-0.019018203
191	0x3c7bf17e	0.0153774
192	0xbcafc0af	-0.021454183
193	0x3c97af19	0.01851611
194	0xbca6b637	-0.020350559
195	0xbce1fff6	-0.027587872
196	0xbca7c403	-0.020479208
197	0xbcea3294	-0.02858857
198	0xbb5ca400	-0.0033667088
199	0x3c277651	0.01022108
200	0x3b507efb	0.0031813968
201	0xbc4902da	-0.012268746
202	0xbca21b94	-0.01978854
203	0xbc951013	-0.018196141
204	0xbd07eec2	-0.03318668
205	0xbd031972	-0.03200669
206	0xba7bac55	-0.00096005696
207	0xbcc7d37f	-0.024392841
208	0xbccc1170	-0.024910659
209	0xbd004a8b	-0.03132109
210	0xbcd49f1f	-0.025954781
211	0xbb9e245f	-0.004826113
212	0xbd00f8a5	-0.031487126
213	0xbc84dc66	-0.016218375
214	0x39a5b2d6	0.00031604496
215	0xbb867ab9	-0.004103985
216	0xbb1257af	-0.0022330096
217	0x3bce7cad	0.0063014836
218	0xbb79a022	-0.0038089831
219	0x3c62800d	0.013824475
220	0x3bee583e	0.007273703
221	0x3b660cf8	0.0035102945
222	0x3c7b2cbf	0.0153304925
223	0x3c660288	0.014038689
224	0xbcccaab6	-0.024983745
225	0x3c22d6c6	0.009938901
226	0x3cc20236	0.023682695
227	0x39c57834	0.00037664326
228	0xbcb50f6a	-0.022102077
229	0x3cb304a6	0.021852802
230	0x3b8b91c6	0.004259321
231	0xbd04edde	-0.03245341
232	0xbd0fd3e0	-0.03511417
233	0x3ca3ab13	0.019979035
234	0xbcbc8ffa	-0.023017872
235	0x3cc8fac4	0.024533637
236	0xbca18205	-0.019715318
237	0x3b8bb2a2	0.004263238
238	0x3cab79da	0.020932127
239	0xbb85acb0	-0.004079424
240	0x3caaf461	0.020868482
241	0xbc5489d2	-0.012972312
242	0xbc6b6ea1	-0.014369638
243	0x3c9602a3	0.018311804
244	0x3c68bf61	0.014205785
245	0xbc98fb46	-0.018674504
246	0x3be2d799	0.006922674
247	0xbcc9ad4c	-0.024618767
248	0xbc8d5c27	-0.017255856
249	0xba9c5cc9	-0.0011929508
250	0xbb1c4870	-0.0023846887
251	0x3cbf9f39	0.023391353
252	0x3cbfd1df	0.023415504
253	0xbcf4b6cb	-0.029872319
254	0xbc9e30c6	-0.019310366
255	0x3c1c150d	0.009526503

decoder.0.bias f4 [64]
0	0xbc94b8cc	-0.018154524
1	0xbbbeb97e	-0.0058204522
2	0x3da57301	0.08078576
3	0x3d1399e4	0.036035433
4	0x3cae84f0	0.021303624
5	0xbcd3f798	-0.025874898
6	0x3cb3cf8c	0.021949552
7	0x3b8a059a	0.0042120935
8	0x3c3843b4	0.01124661
9	0x3c6fde83	0.014640453
10	0x3cd4c2d4	0.025971808
11	0xbd092bf2	-0.033489175
12	0xbca840ae	-0.020538654
13	0x3ce6305f	0.028099237
14	0xbc55a4af	-0.013039752
15	0x3cd5271a	0.026019622
16	0x3cdd688c	0.02702739
17	0x3c937fdf	0.01800531
18	0x3c0c235b	0.008553351
19	0x3ba0ea4f	0.0049107443
20	0x3cb99f35	0.022658924
21	0xbc913e44	-0.017729886
22	0xbc96a0f2	-0.018387292
23	0xbcb97b4e	-0.022641804
24	0xbbd39967	-0.006457496
25	0x3c4a2784	0.012338523
26	0xbc8626bb	-0.01637589
27	0x3ac6cf5f	0.0015168003
28	0xbb338400	-0.002739191
29	0xbcea1de1	-0.0285787
30	0x3c8df6fe	0.01732969
31	0xbc725813	-0.014791506
32	0xbc70b37c	-0.01469123
33	0x3c967ba6	0.018369507
34	0x3c6379b7	0.013884
35	0xbb0fe6db	-0.002195767
36	0xbacef115	-0.0015788401
37	0x3cc2d046	0.023780953
38	0xbd0a24b9	-0.033726428
39	0xbc3e2864	-0.01160631
40	0x3ceed09c	0.029152207
41	0xbbfef7a4	-0.007780986
42	0xba9fa9d3	-0.0012181349
43	0x3cc17efd	0.023620123
44	0x3ca2b4c5	0.019861588
45	0xbcebadfc	-0.028769486
46	0xbcc767d8	-0.024341509
47	0xbd0540e6	-0.032532595
48	0xbc31e8b2	-0.010858702
49	0x3ccfd18e	0.025368478
50	0x3c91cefe	0.017798897
51	0x3c76fe42	0.015075268
52	0xbbd2842d	-0.006424448
53	0x3cda3651	0.026637228
54	0xbbeeb11b	-0.007284296
55	0x3c2e6f13	0.010646599
56	0xbbdfb768	-0.0068272837
57	0x3c52c137	0.012863449
58	0xbc515720	-0.01277712
59	0x3c9af86b	0.018917283
60	0x3c6e3edb	0.014541353
61	0x3b3c7ad0	0.0028759725
62	0xbc410bec	-0.011782628
63	0xbc9403f2	-0.018068288

decoder.2.weight f4 [1, 64, 3, 3]
0	0x3c4452c9	0.011982628
1	0xbc143d72	-0.009047853
2	0xbd20e77f	-0.039283272
3	0xbc12a589	-0.0089505995
4	0x3c9c8676	0.019107085
5	0x3c06afd4	0.008220632
6	0x3d30ee04	0.04319574
7	0xbbe95fa8	-0.007121999
8	0x3a7d173a	0.0009654645
9	0xbcfe1791	-0.031017097
10	0xbab040bd	-0.0013447028
11	0x3cfe60a2	0.031051937
12	0xbd0d5864	-0.034508124
13	0x3cb00ecb	0.021491429
14	0xbbea5069	-0.007150699
15	0xbceae77a	-0.02867483
16	0xbd14b884	-0.03630878
17	0x3cd4324d	0.025902892
18	0xbc621b96	-0.013800522
19	0xbd0cb34d	-0.034350682
20	0x3d121c14	0.03567131
21	0x3c8aa18b	0.016922733
22	0xbd82f8d8	-0.063951194
23	0x3ced18ce	0.028942492
24	0x3ceeb869	0.029140668
25	0xbceb74b1	-0.028742166
26	0x3cb34b98	0.021886632
27	0xbbfc6fd6	-0.0077037616
28	0x3c6cf534	0.014462758
29	0xbd26fa2c	-0.040765926
30	0xbc45a7fe	-0.012063978
31	0xbc224982	-0.009905221
32	0xbd2365bc	-0.039891943
33	0xbd0bcd68	-0.034131438
34	0x3c8d2c30	0.017232984
35	0x3d0c4d49	0.034253392
36	0x3c726c70	0.014796361
37	0xbceb5957	-0.028729124
38	0x3c30df47	0.010795421
39	0x3d0f163b	0.03493331
40	0xba1c5624	-0.00059637637
41	0xbb6c6558	-0.0036071148
42	0x3cc0007b	0.02343773
43	0x3ad03e01	0.0015887619
44	0x3a89446a	0.001047266
45	0x3cfa945a	0.030588318
46	0x3c2aea56	0.010431847
47	0x3cddb40a	0.027063388
48	0xbcb07749	-0.021541255
49	0xbca964bc	-0.020677917
50	0x3c6234f9	0.013806575
51	0xbc85658d	-0.016283775
52	0x3d0e2329	0.0347015
53	0x3cec0266	0.028809737
54	0xbd1f0d6a	-0.038831152
55	0xbd0e5441	-0.03474832
56	0x3c18d6de	0.009328572
57	0xbcf04bec	-0.029333077
58	0xbd272d2d	-0.040814567
59	0xbc0c090a	-0.008547077
60	0x3c043107	0.00806833
61	0xb888eb16	-6.5287735e-05
62	0x39c7d2b3	0.0003811322
63	0x3c796230	0.015221164
64	0x3c40c2ce	0.011765195
65	0xbc438a8c	-0.011934888
66	0xbca257de	-0.019817289
67	0x3c9ad898	0.018902108
68	0x3bbf1af4	0.0058320705
69	0x3d0fd96d	0.035119463
70	0xbd089178	-0.033341855
71	0x3cc0cf56	0.023536365
72	0xbd19fd00	-0.037594795
73	0xbcd79e74	-0.026320674
74	0x3d251487	0.04030278
75	0x3b33f7c2	0.0027460908
76	0x3d25bacc	0.040461347
77	0x3b933f59	0.0044936356
78	0xbce94080	-0.028473139
79	0xbbcb4feb	-0.0062045953
80	0xbcd10884	-0.025516756
81	0x3cf6d2d4	0.030129828
82	0x3c0cdeb1	0.008598016
83	0x3b3fb75e	0.0029253582
84	0xbb1caf0b	-0.0023908045
85	0xbd04cc99	-0.032421682
86	0xbc83883f	-0.016056178
87	0xbbf7a067	-0.0075569632
88	0x3cea9fdf	0.028640686
89	0x3d112bed	0.03544228
90	0xbd1046ad	-0.03522365
91	0xbcfd87c6	-0.03094853
92	0xbce9e844	-0.028553136
93	0xbb5a9e66	-0.0033358573
94	0x3cadcf54	0.021217026
95	0x3ce4a480	0.027910471
96	0xbd141f3e	-0.036162607
97	0x3ca1f4d6	0.019770067
98	0x3b7fe93d	0.0039048933
99	0xbcd481f9	-0.025940882
100	0x3bb553da	0.0055336775
101	0x3ceb1132	0.028694723
102	0xbc5c1b15	-0.013434191
103	0xbc85c17b	-0.01632761
104	0x3aecb2f6	0.0018058706
105	0x3c8c82b1	0.017152162
106	0xbcc544b8	-0.02408062
107	0xbbb28b10	-0.0054487064
108	0xbbffb528	-0.007803578
109	0x3cd7c15c	0.026337318
110	0x3cd2c856	0.025730293
111	0xbc5299fb	-0.012854095
112	0x3cbed990	0.023297101
113	0xbcce9baa	-0.02522071
114	0xbc8e1145	-0.01734222
115	0x3bac04b6	0.005249585
116	0x3caaca21	0.020848336
117	0xbd0cef38	-0.034407824
118	0xbcc6e9a3	-0.024281329
119	0x3b7140d7	0.003681233
120	0x3cab8a73	0.020940041
121	0xbc54a6e1	-0.01297924
122	0x3b197926	0.0023418157
123	0x3bd5698a	0.0065128254
124	0x3ae8545f	0.001772534
125	0xbd166df8	-0.036725968
126	0x3c2488e1	0.0100424
127	0xbcb431d1	-0.02199641
128	0x3c726911	0.014795558
129	0x3b8406bb	0.0040291226
130	0xbc8b28f4	-0.016987301
131	0x3b98040f	0.0046391557
132	0xbbc92f55	-0.0061396756
133	0xbc3ce30c	-0.011528742
134	0x3ca31e4c	0.019911908
135	0x3c9c16e6	0.019053888
136	0x3bf12454	0.007359067
137	0xbd1ee151	-0.038789097
138	0xbcdecb8d	-0.02719667
139	0xbc0046c2	-0.00782937
140	0x3b026277	0.0019895115
141	0xbb01a8a6	-0.001978436
142	0xbca4da7f	-0.020123718
143	0xbc6d8c27	-0.014498747
144	0xbc1f5079	-0.009723776
145	0x3b596719	0.0033173023
146	0x3c858365	0.016298005
147	0x3d10da14	0.035364226
148	0x3d3a07ae	0.04541748
149	0x3c82d2b7	0.015969617
150	0xbcc2aa6d	-0.023762906
151	0xbcbbc348	-0.022920266
152	0xbccbe0d9	-0.02488749
153	0x3c9caa7b	0.01912426
154	0x3c1d5581	0.009602905
155	0xbcfaeced	-0.030630553
156	0x3d9bbeda	0.076047614
157	0x3d0bf2d6	0.034167133
158	0x3d058efa	0.032607056
159	0xbc9b37c5	-0.018947491
160	0xbcc05d07	-0.023481859
161	0xbc54dade	-0.012991635
162	0x3d1d57e4	0.038413897
163	0xbd133c51	-0.035946194
164	0xbce4c7c1	-0.027927281
165	0xbd184999	-0.037179563
166	0x3c5b2557	0.013375602
167	0x3c80adbe	0.015707847
168	0xbbc6a7b7	-0.0060624736
169	0x3cee5f75	0.029098252
170	0xbcde2bf8	-0.027120575
171	0x3b8048ec	0.003914943
172	0xbd03ea39	-0.032205794
173	0xbca01d49	-0.019545214
174	0xbd15648a	-0.036472835
175	0x3d08248c	0.03323798
176	0x3cf18040	0.0294801
177	0x3c7d4ee3	0.015460703
178	0xbd282582	-0.041051395
179	0x3c55b7a0	0.013044268
180	0xbd2f5d6e	-0.04281371
181	0x3ce78e0e	0.02826598
182	0xbcccd5ed	-0.025004352
183	0x3c525b33	0.012839126
184	0xbcd22534	-0.025652505
185	0x3d2cd315	0.04219349
186	0xbab7aa91	-0.0014012625
187	0xbcd6a291	-0.026200565
188	0xbd2cb158	-0.042161316
189	0xbd174e30	-0.0369398
190	0xbd022dc7	-0.031781938
191	0x3d311140	0.04322934
192	0xbd47d2da	-0.048785068
193	0x3a1a6925	0.00058903015
194	0xbd10fddc	-0.03539835
195	0x3d7e698c	0.062112376
196	0x3cdb8932	0.026798818
197	0x3d113a4a	0.03545598
198	0x3cc9e7e4	0.024646707
199	0x3c8ae7c9	0.016956227
200	0xbc9adf02	-0.018905167
201	0xbd190f40	-0.03736806
202	0xbcaf1720	-0.021373332
203	0xbc3186f8	-0.010835402
204	0x3ccb6a08	0.024830833
205	0xbb2e3770	-0.0026583336
206	0xbb059695	-0.0020383943
207	0x3c8e26f5	0.01735256
208	0xbd37b0b9	-0.04484627
209	0xbcb7e39e	-0.022447404
210	0x3cf1a77f	0.029498814
211	0xbd34a9b1	-0.044107143
212	0x3d06d524	0.03291811
213	0x3cd08fbd	0.025459165
214	0x3c757a8d	0.014982832
215	0xbc354f28	-0.011066236
216	0x3c868303	0.016419893
217	0xbd39155d	-0.04518639
218	0x3cb18906	0.021671783
219	0xbd3bba64	-0.045832053
220	0x3cefeea3	0.029288596
221	0x3c605da4	0.013694201
222	0xbb6e80c7	-0.0036392675
223	0xba1fa6a5	-0.00060902006
224	0xbd39f129	-0.045396004
225	0x3c40eb88	0.011774905
226	0x3b47995e	0.0030456404
227	0x3d1bfdcf	0.038083848
228	0xbcb8e47d	-0.02256989
229	0x3d02a82f	0.031898674
230	0x3c4817be	0.012212692
231	0xbd2125e2	-0.03934277
232	0xbd2d525c	-0.042314872
233	0xbcb7cc1b	-0.022436192
234	0x3cd65abc	0.026166312
235	0xbccb0178	-0.024780974
236	0xbbca1934	-0.006167555
237	0xbc992ebd	-0.018699044
238	0x3c207c84	0.009795312
239	0x3d1b2ce2	0.0378846
240	0x3a1ec037	0.0006055864
241	0xbc305e11	-0.010764615
242	0xbc96db74	-0.01841519
243	0xbd1b71f8	-0.037950486
244	0x3c60d559	0.013722741
245	0xbd2a6a69	-0.041605387
246	0xbb903126	-0.00440039
247	0xbc96e145	-0.018417964
248	0x3b09e32e	0.002103995
249	0xb7b02388	-2.099738e-05
250	0xbc820f2d	-0.015876377
251	0x3cad5259	0.02115743
252	0xbc86c8b5	-0.016453126
253	0xbc50080e	-0.012697233
254	0x3d1ba793	0.038001608
255	0x3bf9da9f	0.0076249386
