output/CNN1.pth (torch, 598364 bytes, 7 tensors)

encoder.0.weight f4 [64, 1, 3, 3]
0.18927886 0.27560538 -0.29058444 0.14482154 -0.27374372 -0.17638533 -0.26513812 0.2993823
-0.21322405 -0.064087845 0.09301812 0.12772162 -0.25992873 0.2879632 -0.042460933 0.1620098
-0.261598 0.09871499 0.097304925 0.037124828 -0.016078057 -0.2314499 -0.2673258 -0.20381296
0.12168063 -0.25694525 -0.076710485 -0.28927556 -0.219609 0.028745407 0.252759 -0.33065286
0.31541866 -0.14387836 0.08396713 0.3173726 0.0010760912 -0.06634945 0.2441628 -0.013364981
0.28672278 -0.16519801 0.23676325 -0.2496787 -0.02050048 -0.19205905 0.31652844 -0.114618145
-0.035365667 -0.19101009 0.1439928 0.03408575 0.3311197 0.068908066 0.23976965 -0.37399283
-0.3302956 -0.097171344 0.08906641 0.24170028 -0.16434063 0.091508426 0.13686731 0.054700054
0.27421275 0.010959285 0.034081854 -0.24588962 -0.09701681 0.07523844 -0.26004422 0.31838426
0.16124701 0.18325335 -0.007495098 -0.022421867 0.1809701 -0.209666 0.008338282 -0.022739304
-0.3281737 -0.30573967 0.107945606 0.198724 -0.06449413 0.074664846 9.972496e-05 -0.024958111
-0.18022268 -0.08255629 -0.25873983 -0.10249791 0.36054474 -0.21679461 0.2440109 -0.02821806
0.30665782 -0.1870362 -0.113478124 -0.09103237 -0.07553312 0.16699989 -0.29170805 0.046490613
0.23217116 0.2748519 0.21900463 0.27289754 0.2165586 -0.013764708 0.24806333 -0.039514013
0.3209424 0.16543682 0.12374451 0.21159777 0.18243617 0.1697976 -0.011643886 0.015400392
-0.15184768 -0.27382815 -0.18881765 -0.1765043 -0.037292704 0.254996 -0.29077545 0.1381016
0.016900858 -0.33523333 0.29914302 -0.023883956 -0.23951164 -0.19853212 0.21378452 -0.27681914
-0.0803905 -0.16291568 0.28398272 0.1488868 0.0041294415 -0.2698442 0.0037289462 -0.30021662
-0.0016591139 0.25491536 0.27784085 0.25275362 0.07026019 -0.22308084 0.053092383 0.25246605
0.2426474 -0.34004548 0.037751183 0.15175013 -0.1524403 0.29981712 -0.007907643 -0.2255279
-0.2573549 -0.038724996 0.20236254 0.17528158 0.2356856 -0.2267263 -0.00079163746 0.22206844
0.16663837 0.027626729 -0.06827126 0.036859717 0.07268815 -0.53708786 -0.1463198 0.3318584
-0.2345005 -0.06994459 0.13550231 -0.11451462 0.08787216 0.3165527 -0.34062472 -0.25746456
-0.23986694 0.23535308 -0.061393708 -0.29851294 0.26321283 0.023547571 -0.6348455 -0.23840883
0.112389214 -0.31668794 0.034720328 0.05337657 -0.36961216 0.24818167 0.18453243 -0.08272611
-0.26932135 -0.016269544 -0.18252625 0.24882595 -0.16240714 -0.09927076 -0.24452412 -0.35256225
-0.015386073 0.17441395 -0.32993323 0.096622966 0.15833682 -0.04936545 0.2152486 -0.11940148
-0.07545228 -0.03242216 0.21317047 -0.27657956 0.08348126 0.14149565 -0.29966107 0.23872297
0.13102768 -0.23466918 -0.17979798 -0.046579767 0.08515164 0.094495945 -0.16305234 0.12043203
0.19823267 0.07685883 0.07253457 -0.24200813 0.14285994 0.31506807 -0.0036298719 0.15663914
0.04880815 -0.22216463 -0.065343685 -0.39143494 -0.41988176 -0.43132773 -0.5938949 -0.4810103
-0.413965 -0.4862181 -0.29851043 -0.5368426 -0.20170148 0.053132612 -0.2973942 0.31502104
00000000: 51d2 413e 261c 8d3e 7cc7 94be 194c 143e
00000010: 2328 8cbe 5b9e 34be 2fc0 87be a348 993e
00000020: 6857 5abe 7d40 83bd 4980 be3d 75c9 023e
00000030: 6115 85be ea6f 933e 84eb 2dbd e6e5 253e
00000040: 2cf0 85be 162b ca3d ce47 c73d 3410 183d
00000050: 21b6 83bc 3401 6dbe edde 88be 58b4 50be
00000060: b233 f93d 548e 83be 631a 9dbd ed1b 94be
00000070: 2fe1 60be 7d7b eb3c a169 813e 554b a9be
00000080: 8e7e a13e d954 13be f5f6 ab3d a97e a23e
00000090: a10b 8d3a 38e2 87bd d005 7a3e cbf8 5abc
000000a0: 54cd 923e ab29 29be 1172 723e c6ab 7fbe
000000b0: 9ff0 a7bc 21ab 44be 0410 a23e ebbc eabd
000000c0: 97db 10bd 2698 43be d972 133e 809d 0b3d
000000d0: 8588 a93e ac1f 8d3d 2d86 753e fd7b bfbe
000000e0: 811c a9be c501 c7bd 7368 b63d 4780 773e
000000f0: e948 28be c568 bb3d f226 0c3e 2a0d 603d
00000100: 9d65 8c3e 938e 333c 6a99 0b3d 7dca 7bbe
00000110: c0b0 c6bd 9c16 9a3d 8424 85be 4303 a33e
00000120: f01d 253e c4a6 3b3e 7099 f5bb 10ae b7bc
00000130: 3a50 393e afb2 56be 4a9d 083c c747 babc
00000140: 6206 a8be e989 9cbe 9612 dd3d 4e7e 4b3e
00000150: 8015 84bd e2e9 983d 6e23 d138 f474 ccbc
00000160: 4b8c 38be 4613 a9bd 8c79 84be 6dea d1bd
00000170: 5299 b83e 68ff 5dbe fedd 793e 9029 e7bc
00000180: 4102 9d3e 6b86 3fbe 3867 e8bd 2e6f babd
00000190: 1cb1 9abd 0502 2b3e c25a 95be f16c 3e3d
000001a0: 47be 6d3e 63b9 8c3e c042 603e 3ab9 8b3e
000001b0: 8ac1 5d3e 5f85 61bc 5004 7e3e 72d9 21bd
000001c0: 9052 a43e 4568 293e c36d fd3d 16ad 583e
000001d0: 8cd0 3a3e 6cdf 2d3e ffc5 3ebc ed51 7c3c
000001e0: f57d 1bbe 3433 8cbe 6a59 41be 8bbd 34be
000001f0: 3cc0 18bd d68e 823e 85e0 94be 816a 0d3e
00000200: ab73 8a3c b4a3 abbe 4629 993e 49a8 c3bc
00000210: 8a42 75be 014c 4bbe 54ea 5a3e 3dbb 8dbe
00000220: c6a3 a4bd 5ed3 26be 2f66 913e c875 183e
00000230: 4450 873b 0529 8abe 5661 743b feb5 99be
00000240: a076 d9ba 4484 823e 2841 8e3e ec68 813e
00000250: 93e4 8f3d 4e6f 64be 6677 593d 3b43 813e
00000260: 8f78 783e 711a aebe fca0 1a3d 6364 1b3e
00000270: 4f19 1cbe a181 993e 0f8f 01bc c9f0 66be
00000280: 05c4 83be 1a9e 1ebd 2038 4f3e 047d 333e
00000290: 9157 713e f02a 68be e485 4fba e965 633e
000002a0: 40a3 2a3e 7351 e23c cdd1 8bbd 37fa 163d
000002b0: 86dd 943d 977e 09bf dcd4 15be 58e9 a93e
000002c0: e620 70be 1c3f 8fbd 1ec1 0a3e a486 eabd
000002d0: 52f6 b33d 3213 a23e 5d66 aebe 65d2 83be
000002e0: ae9f 75be 6600 713e f877 7bbd b0d6 98be
000002f0: d5c3 863e d6e6 c03c 3c85 22bf 7221 74be
00000300: 512c e63d ec24 a2be e736 0e3d 64a1 5a3d
00000310: ce3d bdbe 5623 7e3e 12f6 3c3e 4f6c a9bd
00000320: 7de4 89be b547 85bc 29e8 3abe 3bcc 7e3e
00000330: 0f4e 26be 784e cbbd 8864 7abe 0a83 b4be
00000340: de15 7cbc 9299 323e 02ed a8be 43e2 c53d
00000350: 0c23 223e 6d33 4abd 216a 5c3e c388 f4bd
00000360: ba86 9abd 19cd 04bd 5c49 5a3e d69b 8dbe
00000370: 39f8 aa3d 3ce4 103e 2d6d 99be cb73 743e
00000380: 1f2c 063e 1e4d 70be f61c 38be 6dca 3ebd
00000390: fc63 ae3d 1787 c13d 31f7 26be 11a5 f63d
000003a0: 81fd 4a3e 2a68 9d3d 018d 943d fbd0 77be
000003b0: e049 123e 9a50 a13e 25e3 6dbb 0366 203e
000003c0: 0eeb 473d 207f 63be e9d2 85bd 296a c8be
000003d0: befa d6be fdd6 dcbe 7f09 18bf fb46 f6be
000003e0: 38f3 d3be 94f1 f8be 5cd6 98be 846e 09bf
000003f0: d58a 4ebe 95a1 593d 0d44 98be 704a a13e

encoder.0.bias f4 [64]
0.11842233 0.2667078 -9.1305104e-05 -0.16025537 -0.22476524 -0.24192768 -0.07214932 -0.16970763
0.29775557 -0.029475546 -0.30842245 -0.10964128 0.26488566 0.2693149 -0.044431873 -0.13851136
-0.15962906 0.1062856 0.012987147 0.1345445 -0.13354687 0.17665696 0.04254359 0.08659544
-0.26403543 0.19347362 -0.015316781 0.36218047 -0.025766272 -0.003938248 0.3048634 0.11735486
0.017113827 -0.008746524 -0.33456025 0.18635924 -0.18141615 -0.021823999 -0.031234741 0.14407031
0.27025625 -0.21928719 0.2172346 0.0439421 0.22487701 -0.0031441522 0.06881475 0.28885114
0.09083643 0.0005492162 0.12045695 -0.22052811 -0.12502663 -0.16061416 0.14106955 0.054086436
0.0917001 -0.1646379 -0.17942615 0.071627215 -0.23308979 0.26985824 0.0038187786 -0.00070724956
00000000: 6887 f23d ed8d 883e 0e7b bfb8 fc19 24be
00000010: dc28 66be e4bb 77be 06c3 93bd d6c7 2dbe
00000020: 6b73 983e b376 f1bc 8ce9 9dbe 9b8b e0bd
00000030: 189f 873e a4e3 893e 32fe 35bd ecd5 0dbe
00000040: cd75 23be 44ac d93d 0bc8 543c 09c6 093e
00000050: 83c0 08be 90e5 343e 3042 2e3d f358 b13d
00000060: a72f 87be f31d 463e 3cf3 7abc b86f b93e
00000070: ca13 d3bc 6b0c 81bb 0e17 9c3e bf57 f03d
00000080: 4c32 8c3c 954d 0fbc 7b4b abbe f5d4 3e3e
00000090: 28c5 39be 3ec8 b2bc 00e0 ffbc 2b87 133e
000000a0: 075f 8a3e d28c 60be bf72 5e3e a2fc 333d
000000b0: 2946 663e 1f0e 4ebb bfee 8c3d 4ce4 933e
000000c0: 7308 ba3d 46f9 0f3a 22b2 f63d 1fd2 61be
000000d0: fb06 00be 0a78 24be 8974 103e bd89 5d3d
000000e0: 43cd bb3d d696 28be 7dbb 37be 4ab1 923d
000000f0: 17af 6ebe dc2a 8a3e 7944 7a3b b766 39ba

encoder.2.weight f4 [128, 64, 3, 3]
0.030722208 -0.026770571 0.026908576 -0.011992732 -0.011010771 0.039118525 -0.046993922 -0.00073084794
0.009996431 -0.045400936 -0.032366123 -0.019163687 -0.026693698 -0.0002742855 0.02365984 0.023650518
0.012190338 -0.0072036 -9.032406e-05 -0.04109147 -0.008524164 0.045013454 0.04027128 0.024469512
0.022937343 -0.050570514 0.030788774 -0.002167039 -0.007919424 0.026489759 -0.022412995 -0.0064388905
-0.025637764 0.014976432 0.020824784 0.020946188 -0.027963514 0.024501437 -0.025477227 -0.0023736516
0.012651044 -0.021446206 0.0023528652 -0.007556173 0.026893137 0.03736055 0.017529594 -0.007201781
0.019894341 0.027633788 0.0006565863 0.020538747 -0.039561193 0.009958138 0.043697353 0.020974694
-0.012371836 -0.018629648 -0.013429078 0.0040633962 0.0022848 -0.0071579707 0.0014845313 0.03552125
-0.01482168 0.0056695715 -0.024400633 0.044888552 -0.008501127 0.003161533 0.031194655 0.023514248
-0.038941886 -0.022709804 -0.026887555 0.04469324 0.022790585 0.025427008 0.03962446 0.024139846
-0.01235287 0.024602426 -0.03520477 -0.02996146 -0.0030173578 -0.050498474 0.038399637 -0.046065133
-0.024171693 0.0001598057 -0.050902296 -0.036099814 -0.014499422 -0.0200385 -0.015212842 -0.013562899
0.011313303 -0.022451008 -0.069872916 -0.027283901 0.025893476 -0.008688453 -0.0049334397 0.030912967
-0.0072638434 0.029066136 -0.029158192 -0.030569991 0.033009887 -0.017264958 0.0058118296 -0.016874641
0.02922414 0.027405526 0.02587004 0.040859893 0.029976368 -0.045343 -0.0023966318 -0.011755653
0.03474785 0.04336346 0.030854467 0.008343489 0.0074245967 0.043528736 0.061094385 -0.023713158
-0.12933815 -0.0170974 0.057777863 0.016583523 -0.006032737 0.014534265 0.00991345 -0.023990259
-0.008390101 0.006907007 -0.034554772 -0.0023071566 -0.0015591864 0.010938131 0.011947574 -0.018500214
0.038507503 0.026696129 -0.023005484 0.02822029 -0.0075288475 -0.026201708 0.038922016 0.02670137
0.018626112 -0.013917975 -0.031453043 -0.030134233 -0.007300464 -0.05098885 0.04471712 -0.0038542082
0.029800266 0.027770514 -0.020710137 0.024099747 -0.009444575 -0.0017815933 0.043290805 -0.03209326
-0.019150566 0.010652562 0.039080825 -0.015025436 -0.016637841 0.06574878 -0.2024763 0.065221585
0.021334277 -0.09512819 0.14049934 -0.044844605 0.004356255 0.023790918 -0.005401835 0.027336335
0.045089263 0.039379075 -0.06630835 -0.007024901 0.049121253 0.018005155 -0.025372416 0.039789043
0.026714759 0.08697763 -0.0057350267 0.040306028 0.06925563 0.024377778 0.041141443 -0.03039001
0.0386105 -0.047272008 -0.0160021 0.0046189846 -0.06862669 -0.024054391 -0.0033394345 0.042496487
-0.036406573 0.029570516 0.02875118 -0.04120342 -0.011078983 -0.023529058 -0.011475918 0.0074379086
-0.03594262 0.027969504 0.0070035863 0.029302116 0.026554642 0.029766673 -0.039797682 0.04966581
0.010666546 0.013918998 0.012160666 -0.021568475 -0.044153605 -0.03482225 -0.058562063 0.0045574945
0.01450999 -0.037602153 -0.031370003 -0.034342553 0.021290466 -0.02573101 -0.013974905 0.041516993
0.052616592 -0.012818182 0.021967862 -0.023248991 -0.0022971688 -0.0009504357 -0.04785933 0.03265527
-0.038507484 -0.0038758835 0.03211883 -0.025048105 0.033575583 -0.09670217 -0.021312442 0.030848747
00000000: 24ad fb3c f54d dbbc 606f dc3c 2a7d 44bc
00000010: 8566 34bc bf3a 203d b37c 40bd 6096 3fba
00000020: 12c8 233c 55f6 39bd 5792 04bd 2afd 9cbc
00000030: beac dabc facd 8fb9 48d2 c13c bbbe c13c
00000040: fcb9 473c 2d0c ecbb 5c6c bdb8 874f 28bd
00000050: efa8 0bbc 0760 383d 7ff3 243d 4974 c83c
00000060: 18e7 bb3c 0723 4fbd bd38 fc3c e204 0ebb
00000070: 79c0 01bc 0d01 d93c 759b b7bc 54fd d2bb
00000080: 4a06 d2bc b55f 753c bd98 aa3c 5797 ab3c
00000090: bd13 e5bc 3db7 c83c 9eb5 d0bc 448f 1bbb
000000a0: 5346 4f3c f4af afbc 8732 1a3b c699 f7bb
000000b0: ff4e dc3c 6007 193d 399a 8f3c ebfc ebbb
000000c0: 75f9 a23c 4160 e23c c31e 2c3a e040 a83c
000000d0: eb0a 22bd 7527 233c fffb 323d 1fd3 ab3c
000000e0: 3eb3 4abc 349d 98bc a305 5cbc 3d26 853b
000000f0: 95bc 153b 698d eabb 9b94 c23a bb7e 113d
00000100: a2d6 72bc d0c7 b93b d6e3 c7bc 0fdd 373d
00000110: 5048 0bbc b931 4f3b ef8b ff3c f4a0 c03c
00000120: 8781 1fbd e909 babc 4a43 dcbc 4210 373d
00000130: 52b3 ba3c 4d4c d03c 424d 223d edc0 c53c
00000140: b163 4abc 078b c93c e032 10bd bc71 f5bc
00000150: ddbe 45bb 7dd7 4ebd f048 1d3d cbae 3cbd
00000160: b703 c6bc 8491 2739 ed7e 50bd 66dd 13bd
00000170: fc8e 6dbc c827 a4bc 493f 79bc ec36 5ebc
00000180: 6f5b 393c 2deb b7bc 8819 8fbd 7d82 dfbc
00000190: 8e1e d43c 035a 0ebc b1a8 a1bb 313d fd3c
000001a0: 8905 eebb 1b1c ee3c 29dd eebc eb6d fabc
000001b0: 6035 073d 3e6f 8dbc 2971 be3b b03c 8abc
000001c0: 7767 ef3c 8e81 e03c 68ed d33c b45c 273d
000001d0: 0091 f53c 95b9 39bd cf10 1dbb c89a 40bc
000001e0: c353 0e3d e29d 313d 82c2 fc3c 21b3 083c
000001f0: 084a f33b 304b 323d 1b3e 7a3d 1942 c2bc
00000200: 3871 04be d90f 8cbc 7ba8 6c3d 2bda 873c
00000210: 44ae c5bb 2021 6e3c 066c 223c 3887 c4bc
00000220: a276 09bc 2d54 e23b 4e89 0dbd aa33 17bb
00000230: 9d5d ccba d935 333c c2bf 433c c38d 97bc
00000240: 0bba 1d3d d7b1 da3c ff75 bcbc 3d2e e73c
00000250: 8db4 f6bb f7a4 d6bc b16c 1f3d d5bc da3c
00000260: ca95 983c 3808 64bc e8d4 00bd 11dc f6bc
00000270: bb38 efbb afd9 50bd 4c29 373d e296 7cbb
00000280: b01f f43c fd7e e33c 4ea8 a9bc d56c c53c
00000290: 6bbd 1abc 5a84 e9ba b351 313d 3974 03bd
000002a0: a6e1 9cbc 1588 2e3c 3713 203d 3f2d 76bc
000002b0: 154c 88bc 4ca7 863d f255 4fbe e592 853d
000002c0: 39c5 ae3c 92d2 c2bd 0fdf 0f3e faae 37bd
000002d0: eabe 8e3b 2ce5 c23c e001 b1bb 73f0 df3c
000002e0: 85af 383d f44b 213d accc 87bd 2431 e6bb
000002f0: 5e33 493d 8c7f 933c d0d9 cfbc d6f9 223d
00000300: e9d8 da3c 5421 b23d e4ec bbbb ef17 253d
00000310: e5d5 8d3d e8b3 c73c ee83 283d 78f4 f8bc
00000320: 0b26 1e3d 4ba0 41bd d616 83bc da5a 973b
00000330: 268c 8cbd b70d c5bc 6ada 5abb cc10 2e3d
00000340: 0f1f 15bd de3d f23c 9887 eb3c ebc4 28bd
00000350: 9f84 35bc 03c0 c0bc 7d05 3cbc b3b9 f33b
00000360: 9238 13bd 4d20 e53c 577e e53b fe0a f03c
00000370: 1f89 d93c 3dd9 f33c e502 23bd 606e 4b3d
00000380: bdc2 2e3c 820c 643c 883d 473c 5fb0 b0bc
00000390: 69da 34bd c7a1 0ebd c6de 6fbd 0957 953b
000003a0: 4fbb 6d3c b704 1abd d57d 00bd c7aa 0cbd
000003b0: 5869 ae3c d7c9 d2bc 00f7 64bc b90d 2a3d
000003c0: 7f84 573d 5a03 52bc f2f5 b33c ab74 bebc
000003d0: 198c 16bb a926 79ba 2508 44bd 88c1 053d
000003e0: 06ba 1dbd 8902 7ebb 098f 033d af31 cdbc
000003f0: 8d86 093d ca0b c6bd 6e97 aebc 83b6 fc3c

encoder.2.bias f4 [128]
0.049841456 -0.038423307 -0.0031343282 0.028641995 0.03756379 0.028344337 -0.018292917 0.012976121
-0.008483604 -0.038052727 -0.0051835943 -0.064632945 -0.021341128 0.0018287264 0.0032050014 0.037486237
0.046424653 -0.003092745 0.006811617 0.0097595565 -0.019667862 0.027233526 0.025543988 -0.009767187
-0.015761863 -0.09553259 0.04018276 0.018671652 0.000482865 -0.021400373 -0.031257402 0.03460662
-0.11041164 -0.028810881 0.0042613163 -0.0035669035 0.021363107 -0.0012117387 0.028756248 -0.03786402
0.023936454 0.04567904 -0.02078828 -0.028043678 -0.04206613 -0.032457303 -0.051890925 -0.008411427
-0.02260682 -0.008836462 0.007778647 -0.0330258 -0.0196069 -0.027504144 0.015553816 -0.0073546814
-0.024025302 0.007184217 -0.053429015 -0.034027994 0.041420285 -0.03862614 0.018829666 0.0123545965
-0.026856897 0.009886971 -0.03351343 -0.038416672 -0.014019496 0.030760972 -0.06639219 -0.02352632
-0.041521408 -0.050436825 -0.025092795 0.00047139468 -0.03837183 -0.02735155 0.13186547 0.009966468
-0.0060096458 -0.0035036723 -0.016489213 -0.045105215 -0.0352704 -0.005969156 -0.0032166957 0.027644254
0.031830046 0.015272758 0.0425477 0.020253403 0.01040414 -0.04572265 0.020895906 0.031277075
-0.012708767 -0.040044945 0.0155445635 -0.03383186 0.02959878 -0.04007344 0.012839089 -0.021454403
-0.0007839734 -0.023337986 0.01649384 0.005549963 -0.056593563 -0.008706469 -0.012638065 0.020508168
0.0013799083 0.03729552 -0.007502038 0.026100637 -0.04446752 0.021453032 -0.044605672 0.020489926
-0.021521097 0.008236691 -0.050261844 0.015770566 0.02822003 0.006322517 0.015591128 -0.04487704
00000000: 8e26 4c3d c261 1dbd 4d69 4dbb 9ea2 ea3c
00000010: 7ddc 193d 6232 e83c 07db 95bc cc99 543c
00000020: d0fe 0abc 2ddd 1bbd 24db a9bb 475e 84bd
00000030: 97d3 aebc e0b1 ef3a 000b 523b 2b8b 193d
00000040: c727 3e3d a7af 4abb fc33 df3b 8ce6 1f3c
00000050: 7f1e a1bc d818 df3c a041 d13c 8d06 20bc
00000060: 061f 81bc 97a6 c3bd ae96 243d 4bf5 983c
00000070: 0b29 fd39 d64f afbc c307 00bd acbf 0d3d
00000080: 7f1f e2bd cc04 ecbc 83a2 8b3b b6c2 69bb
00000090: af01 af3c 34d3 9eba 3992 eb3c 4d17 1bbd
000000a0: 6216 c43c f219 3b3d 2f4c aabc dbbb e5bc
000000b0: 894d 2cbd f3f1 04bd 948b 54bd 15d0 09bc
000000c0: f031 b9bc cfc6 10bc 05e4 fe3b 1046 07bd
000000d0: a69e a0bc 5f50 e1bc 6fd5 7e3c 8aff f0bb
000000e0: b6d0 c4bc 9569 eb3b 62d8 5abd f060 0bbd
000000f0: 51a8 293d 7236 1ebd ac40 9a3c ef6a 4a3c
00000100: ff02 dcbc f6fc 213c 6145 09bd cd5a 1dbd
00000110: 07b2 65bc 6ffe fb3c a1f8 87bd 45ba c0bc
00000120: 5a12 2abd d896 4ebd 688f cdbc 8625 f739
00000130: c82b 1dbd 5c10 e0bc be07 073e 664a 233c
00000140: 90ec c4bb de9d 65bb 6314 87bc 3fc0 38bd
00000150: b277 10bd e998 c3bb 33cf 52bb 3476 e23c
00000160: 3960 023d 973a 7a3c 7f46 2e3d 77ea a53c
00000170: 2076 2a3c ac47 3bbd e42d ab3c 641c 003d
00000180: 6f38 50bc 2b06 24bd a0ae 7e3c 4793 0abd
00000190: 2479 f23c 0c24 24bd 0b5b 523c 25c1 afbc
000001a0: 9083 4dba 4e2f bfbc 171e 873c 77dc b53b
000001b0: a7ce 67bd 94a5 0ebc e30f 4fbc bf00 a83c
000001c0: 0ade b43a 30c3 183d a8d3 f5bb 01d1 d53c
000001d0: 9323 36bd 45be af3c 70b4 36bd 7dda a73c
000001e0: 034d b0bc 30f3 063c 5ddf 4dbd 4631 813c
000001f0: b12d e73c 1e2d cf3b ee71 7f3c fdd0 37bd

decoder.0.weight f4 [64, 128, 3, 3]
-0.0020516552 -0.0064106374 0.014613441 0.013631421 0.009987237 -0.022225792 0.007401887 -0.028598338
0.0010986873 0.05168383 0.038562257 -0.01142325 -0.06634843 -0.048777036 -0.025260791 0.00918808
-0.33928972 -0.22255197 -0.014940011 -0.023387527 -0.023438813 -0.025674276 -0.048935357 -0.017669456
-0.009183428 -0.009551548 0.00048736713 -0.0014228777 0.022420064 -0.019985821 -0.00021706871 -0.004658934
0.018299501 -0.020815311 0.01485871 -0.016969817 0.093745895 -0.0014681716 -0.01594643 0.020914948
0.0064305617 -0.01269192 -0.11615602 -0.060907602 -0.017558347 0.0021043925 0.008015122 0.0037900172
-0.00069789717 -0.0008406221 -0.03444323 -0.0060101803 0.012697198 0.009368028 0.065202944 -0.012283143
-0.037341986 -0.17184642 -0.0884432 -0.05035631 -0.045135908 -0.08799093 -0.023457203 -0.031256206
0.010437336 -0.006924271 -0.006434689 -0.035965957 -0.0425363 -0.012821228 -0.033190113 0.003505474
0.0037079516 0.012926104 -0.0033297099 0.0007486665 0.01571505 0.02252508 -0.02085896 -0.009655524
0.027643308 -0.059327718 -0.034022383 -0.0018700826 0.007883969 -0.024603877 0.02685776 0.013001699
-0.035490673 0.04813959 0.00883383 -0.012657939 -0.021271493 -0.013456987 -0.0048852386 -0.031739432
-0.020502824 -0.021246828 0.007066586 0.0073553696 0.009584302 -0.034101494 -0.011495581 -0.02432999
-0.014667267 -0.019252427 0.0023090101 0.008072514 -0.03456564 0.0049541392 -0.016844492 -0.009892286
-0.015303419 -0.025589649 -0.034573223 0.017150626 -0.003240981 0.026835386 0.054334067 -0.033035878
0.002397713 -0.026036344 -0.015595028 -0.056129627 -0.038131867 0.022665588 -0.028972127 -0.010182733
-0.030000685 -0.0008085886 0.0060957917 -2.2016062e-05 -0.017945541 0.0035624164 0.0034661596 0.031433307
0.0012580989 -0.042455625 0.008625563 -0.024416648 -0.011816049 0.085514784 0.007590117 -0.025281651
-0.033714592 0.022354577 -0.019819587 -0.026176458 -0.03852672 0.012390888 0.0011536755 0.024280468
-0.018911922 0.02478579 0.103096955 0.07367065 -0.014009241 -0.008576202 -0.010269568 -0.05914559
-0.13333564 0.0065539908 0.01539676 -0.008233239 -0.020176645 -0.016155746 0.013578172 -0.028478246
0.008480728 -0.030483186 -0.0029082552 -0.022377148 0.016919421 0.0215356 0.022081295 -0.023752602
-0.004682834 -0.007451573 0.008672929 -0.01283749 0.021693282 0.0007412376 0.0054103252 -0.014237606
-0.0095883785 -0.013326004 0.014246371 0.012108339 -0.0043301852 0.0037567897 -0.013379089 -0.027619815
0.031868648 0.024918964 -0.0361334 -0.027711408 -0.010640575 0.018865537 -0.017664319 0.015194651
-0.011410446 0.13954398 0.072226286 -0.036283936 0.014581113 -0.03634936 -0.015635114 -0.004606257
-0.011573239 -0.0068590683 0.08241121 0.031488746 -0.025106099 0.03554712 0.0032953485 0.029031623
-0.054880425 0.046691623 -0.0039960095 -0.13685776 -0.023672061 0.0071257264 -0.13465348 -0.028734066
-0.011487651 0.0075515606 -0.025830576 0.011894281 0.051759742 0.020921271 0.06597044 0.05719926
0.06405476 0.0529385 -0.022967959 -0.00860931 0.025391212 0.004716785 -0.010983697 -0.03776246
0.05701175 -0.10464832 -0.03901136 -0.023565281 -0.0020417413 -0.007917249 -0.025787672 -0.0077743595
0.0053917826 0.019089073 0.0061063236 -0.03210103 -0.009829215 -0.019488066 -0.026911492 -0.004859171
00000000: 1075 06bb 5310 d2bb 376d 6f3c 5356 5f3c
00000010: 82a1 233c dd12 b6bc 878b f23b 1047 eabc
00000020: d401 903a 6cb2 533d 75f3 1d3d 9528 3bbc
00000030: b0e1 87bd 6eca 47bd b8ef cebc 9a89 163c
00000040: 62b7 adbe aae4 63be f3c6 74bc 3397 bfbc
00000050: c102 c0bc dc52 d2bc 7170 48bd 89bf 90bc
00000060: 1776 16bc 197e 1cbc 4f85 ff39 da7f baba
00000070: 48aa b73c 4eb9 a3bc f09c 63b9 f9a9 98bb
00000080: d6e8 953c df84 aabc f271 733c 4904 8bbc
00000090: d9fd bf3d aa6f c0ba 16a2 82bc d355 ab3c
000000a0: 76b7 d23b c5f1 4fbc 35e3 edbd 407a 79bd
000000b0: 86d6 8fbc d9e9 093b dc51 033c f061 783b
000000c0: 16f3 36ba 325d 5cba 5814 0dbd 0cf1 c4bb
000000d0: e907 503c 5b7c 193c 1f89 853d 3c3f 49bc
000000e0: e9f3 18bd 82f8 2fbe b521 b5bd 6b42 4ebd
000000f0: 6ee0 38bd 9734 b4bd 5229 c0bc 8206 00bd
00000100: 5c01 2b3c ffe4 e2bb 15da d2bb 0a51 13bd
00000110: 8b3a 2ebd 2110 52bc 5bf2 07bd 18bc 653b
00000120: 1b01 733b 02c8 533c 4337 5abb 2942 443a
00000130: d9bc 803c 8486 b83c 69e0 aabc 3432 1ebc
00000140: 3874 e23c 9f01 73bd 0e5b 0bbd 8f1d f5ba
00000150: c32b 013c 128e c9bc ce04 dc3c 1405 553c
00000160: ab5e 11bd 052e 453d c5bb 103c 3f63 4fbc
00000170: 8e41 aebc b27a 5cbc 5a14 a0bb 3501 02bd
00000180: 8af5 a7bc d40d aebc d28e e73b 5005 f13b
00000190: 7a07 1d3c 02ae 0bbd f657 3cbc b04f c7bc
000001a0: fa4e 70bc 44b7 9dbc c352 173b 9442 043c
000001b0: b394 0dbd 5556 a23b 76fd 89bc 4113 22bc
000001c0: 31bb 7abc 62a1 d1bc a79c 0dbd 787f 8c3c
000001d0: a366 54bb e2d5 db3c 668d 5e3d a150 07bd
000001e0: f322 1d3b 2c4a d5bc 4a82 7fbc 2ee8 65bd
000001f0: 2930 1cbd 2fad b93c f456 edbc 7ad5 26bc
00000200: ffc3 f5bc 76f7 53ba 35bf c73b 22af b8b7
00000210: 8702 93bc 6e77 693b 8228 633b 36c0 003d
00000220: cbe6 a43a f3e5 2dbd 3c52 0d3c 6c05 c8bc
00000230: 1a98 41bc 6022 af3d 84b6 f83b 771b cfbc
00000240: 5018 0abd f220 b73c b05c a2bc 0370 d6bc
00000250: 32ce 1dbd 2703 4b3c ed36 973a d5e7 c63c
00000260: 2ded 9abc 920b cb3c 7f24 d33d a3e0 963d
00000270: 0487 65bc 3383 0cbc b141 28bc a542 72bd
00000280: 2389 08be dcc2 d63b b142 7c3c b5e4 06bc
00000290: 7e49 a5bc 0e59 84bc fb76 5e3c 364b e9bc
000002a0: c0f2 0a3c e0b7 f9bc 6d98 3ebb 4850 b7bc
000002b0: 999a 8a3c 6d6b b03c d5e3 b43c d194 c2bc
000002c0: 7572 99bb 532c f4bb e718 0e3c 5654 52bc
000002d0: 1cb6 b13c 9d4f 423a 1949 b13b d944 69bc
000002e0: 9318 1dbc 5055 5abc 9c69 693c 0e62 463c
000002f0: 3ae4 8dbb 7934 763b f733 5bbc f342 e2bc
00000300: b388 023d db22 cc3c 9e00 14bd 0903 e3bc
00000310: ce55 2ebc e68b 9a3c c3b4 90bc fcf2 783c
00000320: e1f2 3abc 9ee4 0e3e 60eb 933d 779e 14bd
00000330: 9fe5 6e3c 11e3 14bd 3615 80bc 16f0 96bb
00000340: af9d 3dbc 09c2 e0bb 35c7 a83d 58fa 003d
00000350: 4eab cdbc db99 113d c6f6 573b bad3 ed3c
00000360: 4cca 60bd b73f 3f3d f5f0 82bb 7124 0cbe
00000370: e9eb c1bc ed7e e93b 9ae2 09be b463 ebbc
00000380: b336 3cbc 1573 f73b a59a d3bc 3be0 423c
00000390: 0602 543d 1663 ab3c 831b 873d c549 6a3d
000003a0: 242f 833d 0ad6 583d 4d27 bcbc 100e 0dbc
000003b0: 3b01 d03c 438f 9a3b f7f4 33bc cfac 1abd
000003c0: 2785 693d dc51 d6bd 60ca 1fbd fa0b c1bc
000003d0: bcce 05bb 59b7 01bc ab40 d3bc 0ec0 febb
000003e0: 8dad b03b b060 9c3c 8e17 c83b 5f7c 03bd
000003f0: b70a 21bc 70a5 9fbc 7d75 dcbc ae39 9fbb

decoder.0.bias f4 [64]
-0.017436124 -0.010156076 -0.01023679 -0.024935031 -0.06223541 0.03049089 -0.0024035175 0.021389298
-0.024515491 -0.0038571632 0.021307109 -0.02218216 0.021123013 -0.022890573 -0.031959128 0.004470298
-0.026428586 0.017839752 0.01873189 -0.029511955 -0.0044132555 -0.032076098 -0.023126666 0.009772133
0.017587995 0.035450216 -0.005213739 -0.045214187 0.03330175 -0.018093886 0.015316727 -0.07455538
0.027720729 6.13076e-05 0.021921445 0.027411351 0.0066257017 -0.003291164 0.008658769 -0.023906074
0.025204193 -0.033393756 0.015003121 0.014099281 -0.043671586 -0.019804047 -0.018378848 0.020318657
0.09567758 -0.022176705 0.008567316 0.005207348 0.034294263 -0.003435794 0.033735566 -0.0023634029
0.016260142 -0.009832643 -0.03307843 0.021416906 0.012484535 0.013822957 -0.021797383 -0.1091863
00000000: 34d6 8ebc ac65 26bc 36b8 27bc 8d44 ccbc
00000010: 8fea 7ebd 08c8 f93c 5584 1dbb 9c38 af3c
00000020: b6d4 c8bc 76c8 7cbb 3f8c ae3c 5cb7 b5bc
00000030: 2b0a ad3c 0385 bbbc 93e7 02bd 947b 923b
00000040: c380 d8bc ac24 923c 9f73 993c 0ec3 f1bc
00000050: 129d 90bb 3a62 03bd 2274 bdbc 4c1b 203c
00000060: b314 903c 3f34 113d 03d8 aabb 8332 39bd
00000070: 6a67 083d a139 94bc 02f3 7a3c 7eb0 98bd
00000080: 9516 e33c 4492 8038 9a94 b33c c58d e03c
00000090: 6a1c d93b 92b0 57bb 82dd 0d3c acd6 c3bc
000000a0: 0679 ce3c e4c7 08bd a7cf 753c ac00 673c
000000b0: fae0 32bd 193c a2bc 3d8f 96bc 5073 a63c
000000c0: 9bf2 c33d ecab b5bc ee5d 0c3c 67a2 aa3b
000000d0: 2478 0c3d 0f2b 61bb 4e2e 0a3d 52e3 1abb
000000e0: fd33 853c 1819 21bc 3f7d 07bd 8272 af3c
000000f0: ef8b 4c3c af79 623c 6d90 b2bc 119d dfbd

decoder.2.weight f4 [1, 64, 3, 3]
0.014560982 0.030530447 0.0020627463 0.0014037188 -0.05709314 -0.020427216 -0.05412221 0.024373801
0.030595945 -0.01414009 0.00022824264 0.025008103 0.04120725 0.014852843 0.03844673 -0.017930971
-0.013377757 -0.021711502 -0.004675168 -0.017609492 0.017988577 -0.0041247522 0.023301456 -0.03697322
0.017050881 0.03779588 0.0037926186 -0.024754902 -0.02163359 -0.0066534467 0.038610086 -0.009656669
0.034439377 -0.011558851 0.00028844512 0.017601496 -0.030709557 -0.021883193 -0.013823897 -0.03066675
0.0389727 0.042742286 0.0023852857 -0.05325418 -0.07416651 -0.00812284 -0.02093162 -0.0064276657
0.040981762 -0.033173688 -0.00078160025 0.004020208 0.015425826 0.030013004 -0.0192092 -0.029443232
-0.045265183 -0.037882023 -0.042852607 0.011717064 -0.020051483 -0.022360234 0.012630477 0.01789461
-0.023068061 0.0064252783 0.032225657 0.0069147674 0.02348712 -0.018121084 0.008960836 -0.027986055
-0.0070533245 -0.000516625 0.04098813 -0.030395456 0.023513645 0.005424346 0.024119755 -0.02768628
-0.034573387 0.04463035 -0.013329994 -0.009591539 -0.022146272 0.03667334 -0.03398561 -0.018521601
0.027288618 -0.035058256 0.028514069 0.013462574 0.03678854 -0.001521431 -0.026527911 -0.015585237
0.025925215 -0.013422498 0.033484135 0.029249057 0.011496824 -0.012363079 -0.031796508 -0.008712383
-0.011179608 0.016864147 0.030654531 -0.010722722 -0.033803675 -0.031328864 -0.0032424177 -0.022487877
-0.032775193 -0.03110969 -0.03315455 0.038007263 -0.03011119 0.029352734 -0.044357806 0.02517979
0.039101582 0.03960666 0.01637353 0.04133514 -0.005413095 0.008422611 0.009576621 -0.018590948
0.025782943 -0.02790367 -0.028446948 0.04391961 -0.020921353 0.017649423 -0.006045348 -0.008328798
-0.023594456 0.032793853 -0.02102055 -0.008281666 0.0067301677 0.006855898 0.027296677 -0.004908328
-0.015251324 -0.007415635 -0.012471406 -0.005703434 0.005232533 0.011415668 0.013548401 0.015696414
-0.006224409 0.01739694 -0.0055753617 0.004110069 -0.00316682 0.0003087635 0.011919687 0.011575551
-0.012927203 0.009942952 0.025869967 -0.03185994 0.006831911 0.035198696 -0.019042168 -0.014543611
-0.008446362 0.039078195 0.035966907 -0.013165275 0.027300129 -0.0030519536 -0.016601838 -0.029381895
0.014503091 -0.011151212 -0.018464545 0.027184604 -0.019581 -0.018696675 0.016891414 0.028515443
0.03418313 0.018575776 0.0255064 0.021822464 0.004005507 0.022106452 0.02758216 -0.019152578
0.03334434 0.0063451016 0.024371305 -0.031840816 0.024953268 0.03326575 -0.015233737 0.0028411527
-0.0061014406 -0.01548926 0.0065548765 0.052334465 0.03843054 -0.016175225 -0.018633882 0.015608922
0.008098319 -0.025855646 -0.0365777 0.026933515 0.028341739 0.0030887038 0.03040049 0.04566397
0.02516605 -0.0015303554 0.021650473 -0.021299321 -0.0024091962 -0.032553665 -0.0020217658 0.007191292
-0.016667977 -0.0064162076 0.045608494 -0.0041291937 0.06355514 -0.0486616 -0.0069421637 0.012979468
-0.03232109 0.009797326 -0.019285478 -0.0039047184 0.023456886 0.0065507297 0.020562846 -0.02598066
-0.03420482 0.026679715 0.019706678 0.055569243 0.05728873 0.05466554 -0.00015814125 -0.00035633205
-0.019061897 -0.004929043 0.0045970506 0.014966296 -0.023513885 -0.008775535 -0.030564105 -0.034651104
00000000: 2f91 6e3c fd1a fa3c 242f 073b fdfc b73a
00000010: 7fda 69bd fa56 a7bc 40af 5dbd 91ab c73c
00000020: 59a4 fa3c d6ab 67bc 6b54 6f39 cbdd cc3c
00000030: efc8 283d 5759 733c 517a 1d3d f9e3 92bc
00000040: 612e 5bbc 52dc b1bc 2732 99bb c841 90bc
00000050: c85c 933c ee28 87bb b2e2 be3c 3b71 17bd
00000060: 4aae 8b3c dacf 1a3d 958d 783b cbca cabc
00000070: ed38 b1bc 2805 dabb 9c25 1e3d 0137 1ebc
00000080: 4e10 0d3d 5661 3dbc 733a 9739 0331 903c
00000090: 9c92 fbbc 6244 b3bc a07d 62bc d638 fbbc
000000a0: d6a1 1f3d 8912 2f3d 7452 1c3b 0e21 5abd
000000b0: 9ce4 97bd a915 05bc ca78 abbc 2b9f d2bb
000000c0: 7edc 273d 22e1 07bd 4ee4 4cba f3bb 833b
000000d0: 9bbc 7c3c d5dd f53c 9d5c 9dbc ef32 f1bc
000000e0: fc67 39bd 2e2a 1bbd 3786 2fbd eef8 3f3c
000000f0: 0243 a4bc cf2c b7bc 0ff0 4e3c b897 923c
00000100: 3bf9 bcbc 248b d23b 0dff 033d 4695 e23b
00000110: 1068 c03c ab72 94bc 78d0 123c 0343 e5bc
00000120: 931f e7bb 1e6e 07ba 2be3 273d e4ff f8bc
00000130: b09f c03c b6be b13b cb96 c53c 56ce e2bc
00000140: d39c 0dbd 50ce 363d 0c66 5abc d525 1dbc
00000150: 196c b5bc c936 163d 7f34 0bbd 9dba 97bc
00000160: 618c df3c 3f99 0fbd 5696 e93c 2192 5c3c
00000170: 95af 163d c16a c7ba 1051 d9bc 3959 7fbc
00000180: 1e61 d43c 09ea 5bbc a926 093d b89b ef3c
00000190: 2d5d 3c3c 838e 4abc 0e3d 02bd 62be 0ebc
000001a0: ad2a 37bc ae26 8a3c 361f fb3c 5bae 2fbc
000001b0: b975 0abd b252 00bd be7e 54bb 7f38 b8bc
000001c0: 483f 06bd c0d9 febc 11cd 07bd 81ad 1b3d
000001d0: beab f6bc 2575 f03c 88b0 35bd d945 ce3c
000001e0: fb28 203d 983a 223d c821 863c 094f 293d
000001f0: 5560 b1bb fefe 093c 43e7 1c3c 0b4c 98bc
00000200: c036 d33c 3d96 e4bc 9309 e9bc 0de5 333d
00000210: 4263 abbc 8695 903c 0e18 c6bb 8375 08bc
00000220: 2949 c1bc d952 063d 4a33 acbc d3af 07bc
00000230: bd88 dc3b 71a7 e03b 489d df3c 0ad6 a0bb
00000240: b0e0 79bc dbfe f2bb de54 4cbc dfe3 babb
00000250: ab75 ab3b c808 3b3c 1dfa 5d3c c495 803c
00000260: 21f6 cbbb 0784 8e3c 86b1 b6bb c2ad 863b
00000270: 6c8a 4fbb 89e1 a139 ca4a 433c 61a7 3d3c
00000280: 9fcc 53bc c3e7 223c 41ed d33c 927f 02bd
00000290: 39de df3b 822c 103d 52fe 9bbc 5348 6ebc
000002a0: 9c62 0abc 7510 203d 0952 133d 2ab3 57bc
000002b0: 85a4 df3c 4903 48bb 9400 88bc 4db2 f0bc
000002c0: 5f9e 6d3c 93b3 36bc f542 97bc 3fb2 de3c
000002d0: 5568 a0bc c529 99bc dd5f 8a3c 3899 e93c
000002e0: 9c03 0c3d 3a2c 983c ccf2 d03c 06c5 b23c
000002f0: a140 833b 9718 b53c fbf3 e13c dee5 9cbc
00000300: 1394 083d 92ea cf3b 55a6 c73c 846b 02bd
00000310: cc6a cc3c ab41 083d ed96 79bc a232 3a3b
00000320: 98ee c7bb aac6 7dbc 4aca d63b aa5c 563d
00000330: 5869 1d3d e881 84bc 15a6 98bc 90bc 7f3c
00000340: d0ae 043c 38cf d3bc 80d2 15bd ada3 dc3c
00000350: ef2c e83c da6b 4a3b 730a f93c 250a 3b3d
00000360: 0829 ce3c 3596 c8ba 555c b13c ea7b aebc
00000370: 9be3 1dbb fe56 05bd 9a7f 04bb eea4 eb3b
00000380: 488b 88bc 0d3f d2bb f9cf 3a3d 304e 87bb
00000390: 3229 823d 6351 47bd 177b e3bb d6a7 543c
000003a0: 1f63 04bd f784 203c 94fc 9dbc 4ee6 7fbb
000003b0: a828 c03c 81a7 d63b 6a73 a83c 65d5 d4bc
000003c0: 5a1a 0cbd 6b8f da3c e66f a13c 939c 633d
000003d0: 96a7 6a3d f9e8 5f3d b8d2 25b9 14d2 bab9
000003e0: b227 9cbc cf83 a1bb dba2 963b 3235 753c
000003f0: 31a0 c0bc 43c7 0fbc 9361 fabc 51ee 0dbd
