output/CNN2.pth (torch, 598364 bytes, 7 tensors)

encoder.0.weight f4 [64, 1, 3, 3]
0.16406822 0.05372446 0.26125896 -0.30969933 -0.1836379 -0.08737255 -0.34061897 0.0645864
-0.32721588 -0.15036629 0.22720125 -0.08348574 0.09705466 -0.2287107 0.28642675 -0.06906106
0.23272851 0.037748195 -0.26547927 -0.053862322 -0.26467103 -0.023576017 0.24945469 0.09046386
-0.13045692 -0.0062887087 0.15201358 0.02954457 0.046902496 0.14890215 -0.027284574 -0.17448404
-0.28045377 0.17876817 -0.28631172 0.29442424 0.17355265 0.08623285 0.2862187 -0.21476905
0.25423527 -0.271721 -0.3418104 0.2979457 0.2306627 0.047679488 0.18978958 -0.30340898
0.042078115 0.24256429 0.023742918 -0.13388708 -0.20905851 -0.07552776 -0.12302427 0.0029350703
-0.15884137 -0.15357074 -0.025184173 -0.22394086 -0.020200007 0.12711886 0.2992683 0.073638014
0.21783473 -0.2513496 0.052109405 -0.27422297 0.24073602 -0.015056186 0.31262165 0.09946888
-0.27322736 0.059117854 0.32273903 0.076948196 0.06857853 -0.041135143 0.1352511 -0.14007789
-0.12480401 -0.20481263 -0.27625623 0.013490738 0.11330879 0.31317198 -0.2211954 0.09331246
-0.12599519 0.01535071 -0.2610017 -0.07526372 -0.03829647 0.14377955 -0.07881709 0.23031507
0.20390372 0.099939406 -0.15624456 -0.10782363 0.0432903 -0.19489613 0.098485015 0.0487743
0.17728512 -0.035731323 0.30700302 -0.04377222 0.09896036 0.19541842 -0.20029446 0.17520009
0.0706507 -0.30153313 -0.21689937 -0.25510386 -0.28720796 0.14545876 0.24000414 0.3018424
0.056938708 -0.3037088 -0.30481833 -0.075251944 -0.3905808 0.08498738 -0.053686228 0.20139755
-0.06360024 -0.096634805 0.2377035 0.25073203 0.19066209 -0.20962492 0.009077388 -0.8328055
-0.8108066 -1.0586342 -1.3601853 -1.458741 -1.173154 -1.5920477 -1.512007 -1.3441584
0.29860628 0.07212464 -0.19081652 -0.1675809 -0.1206531 0.28008267 -0.08807324 0.31998882
-0.045916047 0.18308875 -0.321799 -0.2537384 0.3309852 -0.33159178 0.25460023 0.17124581
0.0041115214 0.26833427 0.046024382 0.042400386 -0.5925728 -0.15491919 0.1665263 -0.41042796
-0.08199321 0.14525887 -0.029188065 0.20759894 -0.016465656 -0.19476537 0.046086393 -0.18494411
0.15090166 0.05183503 0.09659467 -0.30800462 -0.21995601 0.14612105 -0.2763363 -0.014955028
0.2606438 0.21681646 -0.08858515 -0.2296329 -0.12857957 -0.27603915 -0.03875527 0.31676885
-0.32184482 0.16845925 0.14591199 -0.017785009 0.2852092 -0.22769037 -0.27975702 0.2689611
0.08435746 0.13380896 -0.24351752 0.067498595 0.19588853 -0.30727184 0.21027026 -0.27172738
-0.046192516 -0.055748966 -0.05882063 0.24786891 -0.05589149 -0.3177855 -0.15805538 0.26441923
-0.31618986 -0.08248341 0.09650737 -0.25549465 -0.30060935 -0.2722497 0.057821628 0.30273685
0.060342323 0.3161949 0.15393823 0.2753063 0.1195312 0.047396414 -0.31019446 0.29241127
-0.09953281 -0.00031146538 0.23325013 -0.28807837 0.1366151 -0.2450262 -0.26148695 0.17205466
-0.024574302 0.048997764 0.02215276 -0.119205356 0.32242715 0.2729122 0.13434307 0.177455
-0.12503152 0.2853964 -0.29941785 0.11257568 0.040888257 0.1293788 -0.3038053 0.15950389
00000000: 8001 283e 2e0e 5c3d bcc3 853e e990 9ebe
00000010: 930b 3cbe 61f0 b2bd 9c65 aebe e045 843d
00000020: d788 a7be 9ff9 19be 72a7 683e 92fa aabd
00000030: 98c4 c63d 2333 6abe 87a6 923e e36f 8dbd
00000040: 6250 6e3e da9d 1a3d e6ec 87be bd9e 5cbd
00000050: f682 87be 7e22 c1bc 0d71 7f3e 1e45 b93d
00000060: 8096 05be 8311 cebb 73a9 1b3e 7407 f23c
00000070: d51c 403d ce79 183e e683 dfbc f2ab 32be
00000080: a397 8fbe 010f 373e 7397 92be c6be 963e
00000090: c9b7 313e d99a b03d 428b 923e 6bec 5bbe
000000a0: 202b 823e 041f 8bbe c601 afbe 578c 983e
000000b0: d832 6c3e 914b 433d 3358 423e 6c58 9bbe
000000c0: 1a5a 2c3d c662 783e 8280 c23c b219 09be
000000d0: 6f13 56be 4cae 9abd 26f4 fbbd 4f5a 403b
000000e0: 50a7 22be a641 1dbe 0a4f cebc c150 65be
000000f0: 7c7a a5bc 722b 023e b239 993e 87cf 963d
00000100: 1110 5f3e e5b0 80be ac70 553d f466 8cbe
00000110: 8183 763e 39ae 76bc f20f a03e 57b6 cb3d
00000120: 75e4 8bbe 9025 723d 0d3e a53e 0497 9d3d
00000130: e672 8c3d 537d 28bd 447f 0a3e 9470 0fbe
00000140: 3f99 ffbd 67ba 51be 7571 8dbe 4208 5d3c
00000150: 700e e83d 1458 a03e 0c81 62be 9a1a bf3d
00000160: e204 01be 8b81 7b3c 04a2 85be dd23 9abd
00000170: c2dc 1cbd f23a 133e db6a a1bd b7d7 6b3e
00000180: 23cc 503e 08ad cc3d 93fe 1fbe a3d2 dcbd
00000190: 2b51 313d da92 47be 83b2 c93d 8fc7 473d
000001a0: 3b8a 353e 025b 12bd 802f 9d3e 804a 33bd
000001b0: bbab ca3d c41b 483e fe19 4dbe a767 333e
000001c0: 50b1 903d 8d62 9abe de1a 5ebe f99c 82be
000001d0: ec0c 93be 24f3 143e a5c3 753e 168b 9a3e
000001e0: 9038 693d b87f 9bbe 2611 9cbe b11d 9abd
000001f0: 35fa c7be dd0d ae3d 17e6 5bbd 293b 4e3e
00000200: d840 82bd 78e8 c5bd 8c68 733e f35f 803e
00000210: ec3c 433e eaa7 56be 53b9 143c be32 55bf
00000220: 0591 4fbf 5381 87bf 8d1a aebf 06b8 babf
00000230: e929 96bf 38c8 cbbf 7289 c1bf 620d acbf
00000240: ece2 983e 15b6 933d 6865 43be 549a 2bbe
00000250: f918 f7bd ff66 8f3e be5f b4bd 93d5 a33e
00000260: 7712 3cbd 9e7b 3b3e d7c2 a4be 00ea 81be
00000270: e476 a93e 66c6 a9be f65a 823e 105b 2f3e
00000280: f1b9 863b 1c63 893e 1084 3c3d 07ac 2d3d
00000290: dab2 17bf 23a3 1ebe df85 2a3e 9d23 d2be
000002a0: 0eec a7bd bebe 143e cf1b efbc d194 543e
000002b0: fce2 86bc 9370 47be 16c5 3c3d fd61 3dbe
000002c0: f785 1a3e f850 543d 6dd3 c53d c8b2 9dbe
000002d0: 263c 61be c2a0 153e f47b 8dbe ef05 75bc
000002e0: 1b73 853e 2205 5e3e 226c b5bd e324 6bbe
000002f0: 5daa 03be 0155 8dbe d9bd 1ebd 872f a23e
00000300: d8c8 a4be 9580 2c3e f469 153e deb1 91bc
00000310: f106 923e aa27 69be 503c 8fbe 45b5 893e
00000320: 9bc3 ac3d 3705 093e a85c 79be b43c 8a3d
00000330: 0197 483e bc52 9dbe 1651 573e da1f 8bbe
00000340: 5d34 3dbd 0759 64bd e7ed 70bd 59d1 7d3e
00000350: 7aee 64bd c8b4 a2be 45d9 21be f561 873e
00000360: a3e3 a1be 10ed a8bd a8a5 c53d 32d0 82be
00000370: 78e9 99be 5064 8bbe 5fd6 6c3d 5300 9b3e
00000380: 8329 773d 4ce4 a13e fca1 1d3e f3f4 8c3e
00000390: c6cc f43d be22 423d cfd1 9ebe eeb6 953e
000003a0: dcd7 cbbd 2d4c a3b9 1fd9 6e3e 027f 93be
000003b0: d4e4 0b3e 26e8 7abe 9ee1 85be 192f 303e
000003c0: 0c50 c9bc e1b1 483d b479 b53c f021 f4bd
000003d0: 2c15 a53e 26bb 8b3e 3b91 093e c3b6 353e
000003e0: 4308 00be 7a1f 923e 4c4d 99be 148e e63d
000003f0: 727a 273d e07b 043e 5e8c 9bbe fd54 233e

encoder.0.bias f4 [64]
0.32363832 0.24935381 -0.00043719722 0.02681254 -0.012874879 0.6204499 8.571765e-05 -0.1411041
0.007304772 -0.013566464 -0.20701094 -0.0023038306 0.011969109 0.047024373 -0.10593487 0.49772072
0.26244023 0.027450018 0.03855049 -0.12656774 0.1521941 -0.008348066 0.26135808 0.51458895
0.2581894 -0.12782793 -0.007013073 -0.2701253 9.122364e-05 0.12554386 -0.08010732 0.009818084
-0.00045158976 -0.004474003 0.24081568 0.20552163 -0.00861873 0.006513091 0.26243863 0.24038757
-0.0076557267 0.6037758 0.25144744 0.0168986 0.0010408807 -0.0017332175 -0.24259734 0.16174413
-0.15960759 0.06855257 -0.089661464 -0.085983574 0.3505148 -0.103551716 0.16282786 0.22182457
-0.23977809 -0.18892947 0.28236577 -0.0022386296 -0.14576712 -0.00054870447 5.4564094e-05 0.111634105
00000000: ecb3 a53e 9b56 7f3e 9e37 e5b9 f9a5 db3c
00000010: 28f1 52bc ced5 1e3f 50c3 b338 987d 10be
00000020: de5c ef3b e045 5ebc adfa 53be ddfb 16bb
00000030: 151a 443c a19c 403d 62f4 d8bd 40d5 fe3e
00000040: 915e 863e dcde e03c 1ee7 1d3d f99a 01be
00000050: c5d8 1b3e 54c6 08bc bad0 853e 1abc 033f
00000060: 6731 843e 53e5 02be eccd e5bb dd4d 8abe
00000070: 524f bf38 928e 003e 4e0f a4bd 07dc 203c
00000080: 5ac3 ecb9 a89a 92bb 6398 763e 4374 523e
00000090: 9335 0dbc c46b d53b 5b5e 863e 2928 763e
000000a0: e4dc fabb 0d91 1a3f b8bd 803e ef6e 8a3c
000000b0: 296e 883a 212d e3ba 706b 78be 41a0 253e
000000c0: 2c70 23be 4a65 8c3d 6ea0 b7bd 2818 b0bd
000000d0: ad76 b33e ec12 d4bd 59bc 263e fb25 633e
000000e0: 6388 75be ba76 41be 3f92 903e f9b5 12bb
000000f0: fa43 15be efd6 0fba c0db 6438 6ca0 e43d

encoder.2.weight f4 [128, 64, 3, 3]
-0.04158186 0.021517025 -0.0040278747 0.037854336 -0.02037703 -0.032350786 -0.007939761 0.034421608
-0.014227507 0.029079027 -0.0076506655 0.012750171 0.01947244 -0.020237992 -0.009267026 0.028841352
-0.019069865 -0.03300337 -0.019425415 -0.017389562 -0.017847149 0.02460584 -0.03843502 -0.0047792024
-0.035630804 -0.01962014 0.0233352 0.015484506 -0.009613006 0.013395737 -0.012254852 -0.037041
0.03779585 -0.0152008915 0.031715248 -0.042396855 -0.026947938 -0.028845018 -0.0075879972 -0.027308716
0.0010659457 -0.04669951 -0.005162411 -0.013596872 -0.04002263 0.006487772 -0.003919358 -0.022770163
0.04493331 0.056221776 0.024612218 -0.016016027 0.011065299 0.005941767 -0.010513233 -0.010290687
0.00037399767 -0.038760938 0.011662857 0.03853577 0.023651058 -0.04324691 -0.0081001185 0.02288183
-0.025868539 -0.013148104 -0.033244584 0.019265927 0.024505492 -0.024401877 0.0036785563 -0.0070334896
0.036542516 0.044311173 0.014025912 0.003034204 -0.020640245 -0.051355712 0.043311752 -0.045868855
0.001620375 0.007591667 0.056038752 0.048246298 -0.033022292 -0.03171272 -0.032883607 -0.040136993
-0.009144416 0.030258927 0.039976485 0.0012096318 0.025303084 -0.029131843 -0.0259103 -0.02859728
-0.013201258 -0.0131322695 -0.026221616 0.019953704 0.0077186115 -0.021904862 -0.026698055 0.028739171
0.020428643 -0.002763095 0.0152526265 -0.014449799 0.023593783 0.005986187 -0.0072522596 -0.0011084544
0.05167003 0.015566067 0.036097493 0.028137976 -0.018624406 -0.016874777 0.012618216 0.041348998
-0.03311422 0.03313555 -0.042424027 -0.026910793 -0.0074643036 -0.050795957 0.03951357 -0.011972016
0.025447315 0.007431288 0.03905211 -0.049586765 0.01159888 0.017010862 -0.0190576 -0.0403894
-0.032370493 0.41338137 -0.10305177 -0.118350446 0.21963605 -0.165484 -0.096752994 0.23638284
0.0389401 0.029096173 0.01087535 -0.008705569 -0.0376169 -0.044847097 0.032333456 0.033382416
0.007954592 -0.03655653 -0.026623234 -0.016908472 -0.03366312 -0.008900355 0.026318885 0.024813358
-0.042953502 0.018663269 0.06282245 0.007717531 -0.03520263 0.30959094 0.054455396 0.022539064
0.19448328 0.17272244 0.08331975 0.0054527777 0.020858623 0.022456665 -0.011380558 0.04402123
0.045935687 -0.031800173 0.026018796 0.005843659 -0.017303938 0.024067542 0.0038002685 0.0337812
-0.025830703 -0.047346007 0.019691296 -0.03386553 -0.038929906 -0.015756993 -0.006339751 -0.04192746
0.047268793 -0.039247327 0.028714038 0.041485418 -0.008219134 0.025934637 0.0314947 0.03685748
-0.039974794 -0.021373019 -0.043871142 -0.015012095 -0.017607264 0.035544716 -0.021151869 0.012866733
-0.015576222 -0.00804488 0.012300974 0.032543655 0.015410322 0.035041686 0.023518354 0.03880287
0.017955218 0.0051433253 0.029213242 0.026728282 0.017132329 -0.03373964 0.018119544 0.022391336
-0.033238288 -0.023376739 0.03225179 0.03369977 -0.02736844 -0.030549325 -0.020626003 -0.021506272
0.0053866496 0.017534483 -0.024170144 0.01663044 0.0154309 0.002188338 0.013630769 0.012019618
-0.023942806 0.0313356 -0.028280914 -0.022663048 -0.019344347 -0.026372407 -0.022574855 -0.015361938
-0.03528669 -0.027911106 0.031367894 0.029179823 0.030210175 -0.020997787 0.011035631 -0.03537758
00000000: be51 2abd 7944 b03c 43fc 83bb 260d 1b3d
00000010: bbed a6bc 4282 04bd c515 02bc acfd 0c3d
00000020: 7d1a 69bc 2437 ee3c 6fb2 fabb 18e6 503c
00000030: ab84 9f3c 25ca a5bc b9d4 17bc b344 ec3c
00000040: 6838 9cbc 8b2e 07bd 0c22 9fbc 8e74 8ebc
00000050: 2f34 92bc 3092 c93c 0a6e 1dbd db9a 9cbb
00000060: 9bf1 11bd 6aba a0bc 7629 bf3c bab2 7d3c
00000070: df7f 1dbc cb79 5b3c 93c8 48bc 4eb8 17bd
00000080: d2cf 1a3d 290d 79bc d9e7 013d 53a8 2dbd
00000090: ecc1 dcbc 634c ecbc bca4 f8bb 87b6 dfbc
000000a0: 34b7 8b3a fc47 3fbd 7129 a9bb 6ac5 5ebc
000000b0: c5ee 23bd 6097 d43b f56d 80bb 7e88 babc
000000c0: fe0b 383d ce48 663d 909f c93c 0b34 83bc
000000d0: 3a4b 353c 27b3 c23b b23f 2cbc 459a 28bc
000000e0: 1e15 c439 cac3 1ebd 9115 3f3c afd7 1d3d
000000f0: ddbf c13c ac23 31bd 5cb6 04bc ad72 bb3c
00000100: 42ea d3bc 256b 57bc 792b 08bd 94d3 9d3c
00000110: bebf c83c 72e6 c7bc ef13 713b 3079 e6bb
00000120: 9bad 153d a27f 353d f0cc 653c 7fd9 463b
00000130: bb15 a9bc 5e5a 52bd aa67 313d fbe0 3bbd
00000140: c362 d43a 85c3 f83b e488 653d e99d 453d
00000150: 6242 07bd 32e5 01bd f6b0 06bd b066 24bd
00000160: 76d2 15bc 92e1 f73c 62be 233d 828c 9e3a
00000170: 6a48 cf3c e7a5 eebc d641 d4bc d844 eabc
00000180: 174a 58bc bb28 57bc b7ce d6bc f375 a33c
00000190: 68ec fc3b d371 b3bc e1b5 dabc 696e eb3c
000001a0: f859 a73c 0b15 35bb 27e6 793c dabe 6cbc
000001b0: c047 c13c c727 c43b 5da4 edbb 8f49 91ba
000001c0: f4a3 533d d108 7f3c f7da 133d 9d81 e63c
000001d0: 3692 98bc f93c 8abc a2bc 4e3c 915d 293d
000001e0: c7a2 07bd 24b9 073d d1c4 2dbd 0674 dcbc
000001f0: 1e97 f4bb 6c0f 50bd fbd8 213d 4626 44bc
00000200: e376 d03c 2982 f33b 1bf5 1f3d 7e1b 4bbd
00000210: 3b09 3e3c 5d5a 8b3c af1e 9cbc 5b6f 25bd
00000220: ec96 04bd b9a6 d33e ce0c d3bd b861 f2bd
00000230: 46e8 603e a374 29be 6f26 c6bd 580e 723e
00000240: a87f 1f3d 195b ee3c 862e 323c cea1 0ebc
00000250: 2e14 1abd 97b1 37bd 1670 043d 00bc 083d
00000260: fa53 023c 4dbc 15bd f818 dabc a383 8abc
00000270: 57e2 09bd cbd2 11bc b49a d73c 6245 cb3c
00000280: 03f0 2fbd b6e3 983c 0fa9 803d 58e3 fc3b
00000290: a230 10bd b482 9e3e 9f0c 5f3d d8a3 b83c
000002a0: a026 473e 27de 303e 8ca3 aa3d 37ad b23b
000002b0: b4df aa3c 0af7 b73c 8575 3abc 9b4f 343d
000002c0: 0f27 3c3d e640 02bd 5f25 d53c 2a7c bf3b
000002d0: fdc0 8dbc 4b29 c53c ed0d 793b 285e 0a3d
000002e0: e99a d3bc e3ed 41bd a44f a13c 95b6 0abd
000002f0: f774 1fbd cf14 81bc b0bd cfbb 21bc 2bbd
00000300: ec9c 413d cec1 20bd b439 eb3c 9dec 293d
00000310: 8ca9 06bc e074 d43c 9600 013d def7 163d
00000320: 9cbc 23bd 7816 afbc 3ab2 33bd 4af5 75bc
00000330: 1c3d 90bc 5697 113d af46 adbc fdce 523c
00000340: 6933 7fbc acce 03bc 068a 493c 7f4c 053d
00000350: 937b 7c3c df87 0f3d 90a9 c03c c2ef 1e3d
00000360: d216 933c 5789 a83b 9c50 ef3c 45f5 da3c
00000370: 1959 8c3c 9432 0abd 706f 943c 096e b73c
00000380: df24 08bd 9380 bfbc 741a 043d c508 0a3d
00000390: c733 e0bc 9442 fabc ddf7 a8bc ec2d b0bc
000003a0: 7e82 b03b 7aa4 8f3c 7700 c6bc 8f3c 883c
000003b0: e3d1 7c3c 386a 0f3b 9753 5f3c efed 443c
000003c0: b423 c4bc c259 003d 60ad e7bc dba7 b9bc
000003d0: 0978 9ebc f20a d8bc e7ee b8bc a3b0 7bbc
000003e0: c788 10bd d5a5 e4bc 9f7b 003d 860a ef3c
000003f0: 547b f73c 8d03 acbc cbce 343c 15e8 10bd

encoder.2.bias f4 [128]
-0.01849699 0.12009576 0.0070839473 0.0311343 0.042400908 0.037484627 -0.022596871 -9.2327515e-05
0.010544394 0.09922394 0.023966284 0.009721269 -0.02819244 -0.01625576 0.10985356 -0.03560313
0.07797387 -0.012039719 0.053784296 0.0010594865 -0.032688852 0.03702092 0.17697836 -0.03229021
0.027850319 0.021827783 0.05834887 0.017344616 -0.00929865 0.006287126 -0.015021025 0.07340106
0.025185019 0.17623581 0.038339604 0.06797756 0.0035803132 0.0054131206 -0.019717688 0.0991372
0.0146661 0.22289291 0.041260738 -0.027367104 -0.012798128 -0.017744547 0.02209783 0.14567247
-0.016334374 0.102672495 -0.03741593 0.09987779 0.02820593 0.012123778 -0.022349356 0.044159006
0.1467128 0.005257065 -0.046794206 0.104792975 0.0023700097 0.04344816 0.006716711 -0.02827386
0.0004326999 0.031085704 -0.032759853 -0.015621033 0.012378106 0.09113465 0.06756704 -0.007817494
0.22028525 0.060981546 -0.009730994 0.018681107 0.08835367 0.035333585 0.084210195 -0.0066125575
0.033206858 -0.040016025 0.0185106 0.018145274 0.185449 0.31619406 0.015451663 0.19307715
0.0023023894 -0.013391049 0.030654814 0.16105135 0.0078117135 0.009255279 -0.041121613 -0.008296168
-0.049472384 -0.06180379 0.01772428 0.02111911 0.034014326 0.023628613 -0.02797451 -0.02203654
0.0909814 -0.005893 -0.014782347 -0.031504154 0.009042818 -0.013273136 0.06317227 0.074372
-0.022538405 0.026590506 -0.014965358 0.112067156 0.2297938 0.0064952956 0.0054771677 0.08999468
0.043996923 0.027458891 0.02063347 -0.045616437 0.0348289 0.014454214 -0.0457649 0.049446575
00000000: 0087 97bc c4f4 f53d 7520 e83b 5c0d ff3c
00000010: 93ac 2d3d 7b89 193d 131d b9bc f59f c1b8
00000020: 65c2 2c3c ec35 cb3d f154 c43c f545 1f3c
00000030: d5f3 e6bc cd2a 85bc e7fa e03d 96d4 11bd
00000040: c4b0 9f3d 3e42 45bc ec4c 5c3d 78de 8a3a
00000050: bfe4 05bd 40a3 173d d139 353e bd42 04bd
00000060: 5a26 e43c 2ed0 b23c 3aff 6e3d 4c16 8e3c
00000070: 5d59 18bc 3c04 ce3b bf1a 76bc 4c53 963d
00000080: d050 ce3c 2977 343e fd09 1d3d d237 8b3d
00000090: b0a3 6a3b 8c60 b13b fd86 a1bc 7208 cb3d
000000a0: 154a 703c 0a3e 643e 0501 293d fa30 e0bc
000000b0: 3daf 51bc 035d 91bc 8206 b53c 2a2b 153e
000000c0: aacf 85bc f545 d23d 7241 19bd ba8c cc3d
000000d0: 1f10 e73c d0a2 463c ff15 b7bc 13e0 343d
000000e0: e13b 163e 7543 ac3b 48ab 3fbd b39d d63d
000000f0: 2a52 1b3b b3f6 313d db17 dc3b 959e e7bc
00000100: ffdb e239 72a7 fe3c 322f 06bd 5cef 7fbc
00000110: 8acd 4a3c cea4 ba3d 9760 8a3d f214 00bc
00000120: 7592 613e c9c7 793d bf6e 1fbc 1f09 993c
00000130: c5f2 b43d f3b9 103d 6576 ac3d 27ae d8bb
00000140: ea03 083d d8e7 23bd 8ba3 973c 66a5 943c
00000150: 58e6 3d3e 30e4 a13e f928 7d3c 04b6 453e
00000160: afe3 163b 2166 5bbc ce1f fb3c a5ea 243e
00000170: 67f9 ff3b 74a3 173c 236f 28bd a7ec 07bc
00000180: 8ea3 4abd f925 7dbd 8232 913c fc01 ad3c
00000190: 9b52 0b3d cb90 c13c cd2a e5bc f985 b4bc
000001a0: 7554 ba3d 111a c1bb a831 72bc 800a 01bd
000001b0: 5428 143c 9177 59bc 7760 813d 5950 983d
000001c0: 76a2 b8bc 55d4 d93c 4331 75bc 7783 e53d
000001d0: 114f 6b3e 7dd6 d43b d079 b33b 214f b83d
000001e0: 1e36 343d 78f1 e03c 8607 a93c 4dd8 3abd
000001f0: c0a8 0e3d 5ed1 6c3c fa73 3bbd 7e88 4a3d

decoder.0.weight f4 [64, 128, 3, 3]
-0.06763244 -0.056023743 -0.02503599 0.0056580217 -0.008556568 -0.033741314 -0.031918347 -0.0059760176
-0.013980046 -0.32661664 -0.66575754 -0.15465283 -0.016355323 -0.0770883 -0.17328846 -0.033549923
-0.028592374 -0.13849717 -0.06823262 -0.06584401 -0.16949384 -0.010410567 0.014171914 -0.023302294
0.010450827 -0.009225559 -0.027741581 -0.048869934 -0.05750262 0.10232858 -0.0009537626 0.008095609
0.0031264576 0.023905288 0.021240436 0.07271794 -0.012964311 -0.04868372 -0.04094505 0.014083786
0.0017460341 0.017390449 -0.030956035 -0.0340373 0.014280626 0.23492591 0.39265525 0.09758181
-0.014172614 0.039451476 0.04413741 -0.007322619 -0.027192913 -0.027075259 -0.062857315 -0.08444553
-0.11169033 -0.027077867 -0.019070629 -0.04616383 -0.013336484 -0.028060954 -0.05254422 0.0129054375
0.019077532 -0.01930746 0.013419619 -0.0258133 -0.024993744 -0.019652728 -0.026017565 -0.005616478
-0.022861516 -0.015709855 -0.0430056 -0.027815957 0.02014901 -0.0016918809 -0.028173314 -0.028429747
-0.019415624 0.3612477 0.5638623 0.5854019 0.013634402 0.04466487 0.030658584 0.0055324617
-0.010918185 -0.018902414 0.0027523434 0.0004602389 0.02256623 -0.03474168 -0.029090649 -0.017570494
-0.018950326 -0.023687724 -0.019567741 -0.0511584 -0.048870966 -0.03786358 0.016263487 -0.036077242
-0.012554211 -0.047526248 -0.036929704 -0.057928547 -0.010935838 0.014971586 0.007855344 0.01485281
-0.015231329 -0.02734877 -0.02737182 0.020509092 0.01600343 -0.026534855 -0.034454357 -0.011436456
-0.003064947 0.0020835546 0.00485391 -0.01460479 0.009035559 -0.027668351 -0.12606573 -0.12742874
-0.016404318 -0.20770685 -0.15709122 -0.013285959 -0.34934333 -0.08907178 0.007168176 -0.028037677
-0.025761725 -0.02641648 0.011417534 -0.032832794 0.0043155053 -0.02529615 -0.034968063 0.01738389
-0.09737542 -0.26726434 -0.042910334 -0.014835695 0.004590655 0.030345814 -0.015345286 -0.01579778
0.09392556 -0.084254354 -0.07929346 -0.0015104159 0.016871892 -0.015192252 0.043196436 0.0064902483
-0.022490304 0.0037235697 -0.122845516 -0.18097663 0.11511879 -0.023490855 -0.009363829 0.010984033
-0.027912138 -0.013114942 0.016647771 -0.03288945 -0.057251845 -0.2305626 -0.01944208 0.01352203
-0.07746474 -0.020933717 -0.01565931 -0.027816493 -0.031200089 -0.033950035 0.12686606 0.072371796
0.094248265 0.12565827 0.0123775005 0.023420952 0.10366029 -0.046928808 -0.06465114 -0.017940495
-0.016849909 -0.011781272 0.009510915 0.004519174 -0.031785604 -0.01142927 -0.10444743 -0.16252007
-0.09808033 -0.009038847 -8.4493455e-05 -0.07137628 -0.10728567 -0.19743635 -0.14328308 -0.06860462
-0.11529466 0.116960034 0.045110267 0.017673818 0.07841348 0.028667297 0.037940785 0.13002598
-0.017435158 -0.033556923 0.013556842 -0.03362658 0.010832475 0.00116598 -0.008924859 0.0022689018
-0.013256828 -0.041152075 -0.03454243 -0.060379505 -0.03606979 -0.030075215 -0.033046786 -0.010468604
0.0056626704 0.007021024 -0.027671175 -0.034266822 -0.0006818523 -0.013435498 0.0029081756 -0.014386011
-8.5765405e-06 -0.017931664 -0.0012055304 0.0036201288 -0.028502895 0.0099517945 0.0019943241 -0.014121106
-0.00886376 -0.014422463 -0.02409171 -0.015627302 -0.019352706 -0.059907448 0.07348273 0.051899746
00000000: e082 8abd 2779 65bd 4718 cdbc ed66 b93b
00000010: d930 0cbc 5534 0abd d0bc 02bd 78d2 c3bb
00000020: 900c 65bc 4c3a a7be 166f 2abf 505d 1ebe
00000030: 99fb 85bc 78e0 9dbd 8872 31be a56b 09bd
00000040: 8e3a eabc 34d2 0dbe 8bbd 8bbd 39d9 86bd
00000050: cb8f 2dbe 1591 2abc 5131 683c 74e4 bebc
00000060: f239 2b3c cd26 17bc 5042 e3bc d72b 48bd
00000070: de87 6bbd a691 d13d ed05 7aba 72a3 043c
00000080: 41e5 4c3b 06d5 c33c 6c00 ae3c 25ed 943d
00000090: 4368 54bc 9568 47bd ffb5 27bd aebf 663c
000000a0: 2fdb e43a 6a76 8e3c 8397 fdbc b26a 0bbd
000000b0: 49f9 693c 6b90 703e 1c0a c93e f9d8 c73d
000000c0: 4034 68bc df97 213d 6ec9 343d 95f2 efbb
000000d0: acc3 debc efcc ddbc 56bb 80bd c7f1 acbd
000000e0: e6bd e4bd 67d2 ddbc 023a 9cbc 4916 3dbd
000000f0: 4581 5abc 16e0 e5bc 9c38 57bd 5471 533c
00000100: 7c48 9c3c ae2a 9ebc f6dd 5b3c 6a76 d3bc
00000110: aebf ccbc c2fe a0bc ca22 d5bc 6f0a b8bb
00000120: 1348 bbbc f4b1 80bc a426 30bd 4ade e3bc
00000130: 890f a53c 1ac2 ddba b9cb e6bc 80e5 e8bc
00000140: 840d 9fbc 75f5 b83e 4859 103f e6dc 153f
00000150: d462 5f3c 83f2 363d b627 fb3c a749 b53b
00000160: 30e2 32bc 3cd9 9abc a960 343b 384c f139
00000170: d0dc b83c 4b4d 0ebd 834f eebc ffef 8fbc
00000180: b73d 9bbc c20c c2bc 874c a0bc 788b 51bd
00000190: ec2c 48bd d716 1bbd 013b 853c bbc5 13bd
000001a0: 2db0 4dbc e2aa 42bd 9a43 17bd 7c46 6dbd
000001b0: 3b2c 33bc 624b 753c b3b3 003c 3359 733c
000001c0: d38c 79bc 870a e0bc de3a e0bc af02 a83c
000001d0: a019 833c a05f d9bc 0320 0dbd f95f 3bbc
000001e0: 47dd 48bb 3f8c 083b 8c0d 9f3b ee48 6fbc
000001f0: e209 143c bda8 e2bc 6017 01be ae7c 02be
00000200: 5962 86bc 1bb1 54be 85dc 20be 5aad 59bc
00000210: 21dd b2be 446b b6bd 05e3 ea3b 45af e5bc
00000220: 410a d3bc 6067 d8bc 9c10 3b3c ae7b 06bd
00000230: 1569 8d3b df39 cfbc ac3a 0fbd a968 8e3c
00000240: c46c c7bd dfd6 88be bfc2 2fbd 6a11 73bc
00000250: 356d 963b c997 f83c cb6a 7bbc 596a 81bc
00000260: 0b5c c03d 8c8d acbd 9c64 a2bd 26f9 c5ba
00000270: ec36 8a3c ece8 78bc bfee 303d 26ac d43b
00000280: 963d b8bc 2207 743b 6e96 fbbd f051 39be
00000290: 66c3 eb3d e56f c0bc bf6a 19bc 60f6 333c
000002a0: ffa7 e4bc 0ee0 56bc e860 883c 17b7 06bd
000002b0: e980 6abd 9a18 6cbe ff44 9fbc 818b 5d3c
000002c0: d5a5 9ebd 307d abbc f447 80bc 6adf e3bc
000002d0: 5497 ffbc 310f 0bbd 2de9 013e aa37 943d
000002e0: 3c05 c13d 90ac 003e 00cb 4a3c 4cdd bf3c
000002f0: d94b d43d 6c38 40bd d167 84bd f2f7 92bc
00000300: d208 8abc 3c06 41bc abd3 1b3c 9415 943b
00000310: 9f31 02bd d541 3bbc 89e8 d5bd a96b 26be
00000320: 57de c8bd ac17 14bc 1432 b1b8 ba2d 92bd
00000330: 97b8 dbbd c12c 4abe cdb8 12be 9480 8cbd
00000340: 9b1f ecbd be88 ef3d 8bc5 383d afc8 903c
00000350: 3f97 a03d aed7 ea3c cc67 1b3d 8825 053e
00000360: 2dd4 8ebc fc72 09bd 841d 5e3c 06bc 09bd
00000370: b17a 313c ccd3 983a 9239 12bc dbb1 143b
00000380: 2b33 59bc 148f 28bd 5d7c 0dbd 8050 77bd
00000390: ebbd 13bd 4c60 f6bc 115c 07bd 8284 2bbc
000003a0: ec8d b93b 9e10 e63b a9ae e2bc 5e5b 0cbd
000003b0: 55be 32ba 9020 5cbc 1797 3e3b 4eb3 6bbc
000003c0: f6e3 0fb7 6de5 92bc e302 9eba af3f 6d3b
000003d0: e77e e9bc da0c 233c 35b3 023b 365c 67bc
000003e0: 4e39 11bc 324c 6cbc fa5b c5bc d404 80bc
000003f0: 9189 9ebc 8361 75bd 1d7e 963d d494 543d

decoder.0.bias f4 [64]
0.09179743 0.00028814437 0.019942991 0.005557179 0.0057384507 -0.0222698 -0.021443218 -0.015283861
-0.0062868935 -0.017798364 -0.021286262 -0.046499275 0.06817203 -0.017768951 0.02525733 0.012372978
0.063599445 -3.1095537e-05 0.011038374 0.011135017 0.013007725 -0.008937772 0.013923891 -0.0043163067
0.01955884 0.040368408 -0.027605861 0.0017683241 -0.0015364954 0.02723469 0.059793316 8.4869615e-05
0.00840214 -0.006438184 -0.0038392371 0.01570038 -0.030149968 -0.030374985 0.07197132 -0.0059725656
-0.01179569 0.009779956 0.0132668605 -0.03864762 0.018269014 0.021797678 0.058774315 0.0069279866
-0.04137078 -0.014680401 0.009977946 0.020515723 0.02555319 0.07279683 0.0880718 0.0961257
-0.0013660346 0.023158677 -0.0118825035 0.0069102994 0.0765021 0.021356883 0.011850915 -0.017247634
00000000: 4a00 bc3d 1512 9739 7c5f a33c ff18 b63b
00000010: 9d09 bc3b 286f b6bc b0a9 afbc 2969 7abc
00000020: 4902 cebb e0cd 91bc 8760 aebc 0676 3ebd
00000030: c79d 8b3d 3190 91bc 76e8 ce3c 08b8 4a3c
00000040: 6d40 823d 946c 02b8 4cda 343c a56f 363c
00000050: 5a1e 553c bc6f 12bc 0821 643c ce6f 8dbb
00000060: dc39 a03c 5859 253d b025 e2bc 1cc7 e73a
00000070: 3b64 c9ba 491b df3c d6e9 743d 07fc b138
00000080: 21a9 093c 67f7 d2bb b69b 7bbb 159e 803c
00000090: 11fd f6bc f6d4 f8bc b365 933d 83b5 c3bb
000000a0: b642 41bc 1c3c 203c 3f5d 593c f74c 1ebd
000000b0: e6a8 953c 0b91 b23c 56bd 703d 2a04 e33b
000000c0: 6874 29bd 1186 70bc 8a7a 233c 9710 a83c
000000d0: ec54 d13c 8116 953d fd5e b43d 8ddd c43d
000000e0: 840c b3ba 44b7 bd3c d5ae 42bc cb6f e23b
000000f0: 22ad 9c3d a1f4 ae3c 572a 423c e94a 8dbc

decoder.2.weight f4 [1, 64, 3, 3]
0.1376136 0.074038945 0.0740809 0.20054518 0.1251346 0.15419972 0.27947038 0.16448534
0.27249268 0.03641295 0.0397566 -0.03421419 -0.011936364 0.026577555 -0.039581463 0.043362882
0.021735132 0.01296081 -0.041012205 -0.015606473 -0.0038233746 0.011743102 0.039277215 -0.020466965
0.03275232 0.034100242 0.030039253 -0.005100369 0.016875647 -0.016767906 0.039374664 -0.050477453
0.004634067 -0.0032535994 0.032465227 -0.0018747558 -0.032672513 -0.010504143 0.042045824 0.017071161
0.0064971503 0.012948165 -0.03594927 -0.021295639 0.015365107 -0.027810896 0.014707113 0.040455837
-0.0034710576 -0.04013491 -0.023962868 -6.850707e-05 0.03299173 0.040791225 0.032288548 -0.03878021
0.0051165726 -0.010737829 -0.009052438 0.032219134 -0.03526672 0.04119116 -0.007950872 -0.038243175
-0.013953447 -0.030819476 0.0056643523 0.0012002229 0.016524088 -0.073102176 -0.08712455 -0.13193521
-0.030570984 0.0330991 -0.02105805 0.029626237 -0.010468846 -0.036553085 0.036824483 0.010681001
-0.033717953 -0.02289303 -0.017393196 0.04337722 -0.0014936046 -0.0185201 0.04170056 -0.029517625
0.015945384 0.005281839 0.033302203 -0.01790351 -0.006792844 -0.0039567687 0.013769312 -0.028952526
-0.03965036 -0.021731026 0.05252706 -0.022108154 0.0082538305 0.054681186 0.003445069 -0.019688312
-0.039031077 0.018844955 -0.029761495 0.038713478 -0.0334246 -0.011982164 0.018840432 0.017452223
0.01914854 0.0136837745 -0.028446965 -0.023836588 -0.0055999965 0.017485548 0.040391997 -0.014470761
0.0072575826 -0.032693163 0.037135333 0.00086812867 -0.0024224655 -0.0359888 0.029352453 -0.03980439
-0.015909191 0.04049817 0.031686213 -0.0107470425 0.039052375 -0.0471767 0.011486664 -0.010611381
-0.011789649 -0.0051856493 -0.024867693 -0.022448743 0.031035656 0.038741793 -0.0246392 0.031754415
0.023721542 -0.031051226 -0.005575767 -0.017488414 -0.026098685 0.0013140332 0.022855245 0.009712968
-0.0016609519 0.0050660055 0.016664613 -0.031235773 0.00067902764 0.032837685 -0.02778392 -0.024832424
0.013706799 0.03283931 0.0006250448 0.034639556 0.009483731 -0.0009901858 0.02636142 -0.03797265
-0.036513932 0.030109981 -0.047103573 0.011351862 -0.029034799 -0.014903105 -0.028618202 0.034657154
-0.0031349657 -0.021762336 0.019815054 0.029712275 -0.0023772677 0.044719834 -0.04328275 -0.01883252
-0.0147571415 0.037828036 -0.031384625 0.026402965 -0.004727663 0.012346833 0.025563622 -0.02234686
-0.044477243 -0.0126629975 0.018339518 0.028617026 0.03294163 -0.00032900734 0.015466219 -0.04830182
0.004656445 0.034685176 0.023667635 -0.024438314 0.037917797 -0.014592422 -0.038343474 -0.0083733965
0.0031378998 0.0167737 0.011712563 0.02085332 -0.044842336 -0.0039105196 0.02265272 0.025463734
-0.026172856 0.048155025 -0.0032297361 -0.002429255 -0.039487176 0.005713892 0.03954345 -0.00064841803
-0.014038702 -0.030321574 0.03236363 0.0014350237 -0.013617244 -0.011004866 -0.040042542 0.024381816
0.032055594 0.005018638 -0.005192738 0.031642646 0.007407788 -0.011123099 -0.052369982 0.021940917
0.040128194 -0.012174442 0.013790957 0.030169938 -0.039947525 -0.034296066 0.025573304 -0.0069260164
-0.04724311 0.010142392 0.016399676 -0.0042789076 -0.017739646 -0.012557246 0.019639926 0.0013822888
00000000: 94ea 0c3e bba1 973d bab7 973d b75b 4d3e
00000010: 4923 003e 88e6 1d3e be16 8f3e d86e 283e
00000020: 2984 8b3e bf25 153d d1d7 223d 2e24 0cbd
00000030: bd90 43bc 2cb9 d93c 2c20 22bd 479d 313d
00000040: e00d b23c 9459 543c 6afc 27bd 4bb2 7fbc
00000050: 9591 7abb 2466 403c 25e1 203d 56aa a7bc
00000060: 4c27 063d b2ac 0b3d e114 f63c ff20 a7bb
00000070: cc3e 8a3c d95c 89bc 5447 213d 72c1 4ebd
00000080: 5fd9 973b 573a 55bb 42fa 043d 5eba f5ba
00000090: 9dd3 05bd 9219 2cbc 3e38 2c3d d2d8 8b3c
000000a0: 0ce6 d43b 8a24 543c 8b3f 13bd 3174 aebc
000000b0: eebd 7b3c add3 e3bc 1af6 703c 05b5 253d
000000c0: af7a 63bb 8164 24bd c74d c4bc 74ab 8fb8
000000d0: 5622 073d b314 273d ff40 043d ffd7 1ebd
000000e0: eca8 a73b b8ed 2fbc ad50 14bc 36f8 033d
000000f0: d673 10bd 10b8 283d 6044 02bc e0a4 1cbd
00000100: 009d 64bc 2079 fcbc 089c b93b cc50 9d3a
00000110: 865d 873c 98b6 95bd 5b6e b2bd 061a 07be
00000120: 0070 fabc ec92 073d ef81 acbc b9b2 f23c
00000130: 8685 2bbc b0b8 15bd 45d5 163d 5dff 2e3c
00000140: d61b 0abd 2a8a bbbc 2d7c 8ebc 50ac 313d
00000150: 0ec5 c3ba 77b7 97bc 35ce 2a3d f2ce f1bc
00000160: e59f 823c 4713 ad3b e467 083d 62aa 92bc
00000170: 8196 debb c8a7 81bb ae98 613c d92d edbc
00000180: 6a68 22bd 4405 b2bc 9d26 573d 291c b5bc
00000190: 133b 073c 61f9 5f3d abc6 613b 6249 a1bc
000001a0: 0ddf 1fbd bc60 9a3c 61ce f3bc 0692 1e3d
000001b0: 3ce8 08bd d750 44bc 4057 9a3c f7f7 8e3c
000001c0: 66dd 9c3c e931 603c 9c09 e9bc f344 c3bc
000001d0: 2d80 b7bb da3d 8f3c 1472 253d c516 6dbc
000001e0: 04d1 ed3b 44e9 05bd 381b 183d 2193 633a
000001f0: 3ac2 1ebb fe68 13bd 8e74 f03c ee09 23bd
00000200: fe53 82bc 69e1 253d 67c9 013d 5d14 30bc
00000210: 62f5 1f3d 5b3c 41bd 9032 3c3c 5cdb 2dbc
00000220: 5f29 41bc 61ec a9bb 55b7 cbbc 6de6 b7bc
00000230: 7d3e fe3c b7af 1e3d 26d8 c9bc eb10 023d
00000240: ae53 c23c 245f febc ecb4 b6bb dd43 8fbc
00000250: e9cc d5bc a33b ac3a ec3a bb3c 2423 1f3c
00000260: 4cb4 d9ba bc00 a63b 3a84 883c 2ae2 ffbc
00000270: c600 323a cf80 063d 1a9b e3bc 5e6d cbbc
00000280: 7b92 603c 8382 063d 0cda 233a 35e2 0d3d
00000290: a761 1b3c 1fc9 81ba e8f3 d73c 3689 1bbd
000002a0: a28f 15bd 35a9 f63c adef 40bd 29fd 393c
000002b0: 63da edbc 272c 74bc b870 eabc a9f4 0d3d
000002c0: ff73 4dbb ed46 b2bc 2e53 a23c 2867 f33c
000002d0: efcb 1bbb 252c 373d 4149 31bd a846 9abc
000002e0: f0c7 71bc 92f1 1a3d 2a8d 00bd 084b d83c
000002f0: 83ea 9abb 5f4a 4a3c cd6a d13c c310 b7bc
00000300: c52d 36bd 7678 4fbc c23c 963c 416e ea3c
00000310: cded 063d 9e7e acb9 0666 7d3c 21d8 45bd
00000320: 1795 983b 0b12 0e3d a1e2 c13c dc32 c8bc
00000330: b14f 1b3d 0e15 6fbc 0c0e 1dbd 9230 09bc
00000340: 39a5 4d3b 0069 893c 0de6 3f3c 95d4 aa3c
00000350: 99ac 37bd d123 80bb 3292 b93c 5299 d03c
00000360: 7568 d6bc 343e 453d fba9 53bb 2334 1fbb
00000370: 4ebd 21bd 9a3b bb3b 50f8 213d 99fa 29ba
00000380: 9502 66bc f364 f8bc ba8f 043d 6817 bc3a
00000390: dc1a 5fbc c14d 34bc a603 24bd 60bc c73c
000003a0: ba4c 033d 6373 a43b d827 aabb b89b 013d
000003b0: 08bd f23b a93d 36bc e881 56bd 70bd b33c
000003c0: 765d 243d 5077 47bc 77f3 613c f226 f73c
000003d0: 04a0 23bd 087a 0cbd 1b7f d13c a3f3 e2bb
000003e0: fe81 41bd 462c 263c 9d58 863c 1436 8cbb
000003f0: bc52 91bc e8bc 4dbc e9e3 a03c ea2d b53a
